saved/20191016134_best.pt (torch_old, 63773 bytes, 13 tensors)

GAT_layers.0.f.weight f4 [32, 6]
000000 48 98 37 bf 99 b4 e2 be 77 02 11 3f 10 5c 27 c0
       -0.7171674 -0.4427841 0.56644386 -2.614994
000010 e8 2b e1 bd 76 cd 1b 3f 1e bc 38 3e 20 93 4a bf
       -0.109947026 0.60860384 0.18040511 -0.79130745
000020 30 ae 5d bf 62 61 6e be 4c 2f 84 bf 71 76 98 bf
       -0.86593914 -0.23279336 -1.0326934 -1.1911145
000030 ba 4d 8b bd 8c 8d b8 be 44 41 4d 3e 1b 77 b0 bc
       -0.068019345 -0.36045492 0.20044428 -0.021541169
000040 7e 93 6e bc a1 a5 e9 3d 11 d8 a9 be 8e a7 9a be
       -0.014561532 0.11408544 -0.33172658 -0.3020596
000050 10 4c b2 3d 38 8e 41 be e8 70 b7 bd 6b 99 ca be
       0.08705914 -0.18901908 -0.08957082 -0.39570174
000060 79 1f 05 3e c9 08 93 3d 1b 31 73 be a0 93 c5 be
       0.13000287 0.0717941 -0.23749201 -0.3858919
000070 6e f1 0f bf de 28 cd bb ee 11 fb 3e 02 27 b4 be
       -0.5622777 -0.0062609753 0.49037117 -0.3518601
000080 75 d9 1f 3e dc 9e 08 bf f5 55 99 be 54 c2 ac bd
       0.15610297 -0.533674 -0.29948393 -0.08435503
000090 fa 41 6d be df 91 1c 3d bc 92 1b 3e 57 f6 1e be
       -0.231697 0.03822505 0.15192693 -0.15523659
0000a0 2c ff b2 be 02 6d d7 bd 10 f4 79 bd 42 ad f5 3e
       -0.34960306 -0.105188385 -0.06102377 0.47983748
0000b0 05 d7 87 bd 8a 08 fe bc 61 0e e8 bc 0e ca 88 be
       -0.066328086 -0.031009931 -0.028327169 -0.26716655
0000c0 12 44 24 3c a0 d7 a8 be 82 33 c5 3f b6 ba 4f bc
       0.010025995 -0.3297701 1.5406344 -0.012678793
0000d0 5e db dc be 4c a8 a3 3f ff 13 4e bd ea a0 ad be
       -0.43136114 1.2785735 -0.05031204 -0.3391183
0000e0 46 21 d3 be 14 12 71 bc aa 28 cb be 0a 62 5d be
       -0.41236323 -0.014713783 -0.39679462 -0.2161943
0000f0 de 94 11 c0 6c 2f 0e 3f 84 8d bb be fa 63 ee bc
       -2.2747111 0.5554111 -0.36631405 -0.029100407
000100 5f e0 e9 3d 02 49 ba be 80 87 39 3c 96 a4 0c c0
       0.114197485 -0.36383826 0.01132381 -2.1975455
000110 20 1e b2 3e 94 a8 ca bb 80 5d 75 bf 33 1f d3 3d
       0.3478861 -0.006184647 -0.95845795 0.10308685
000120 b3 39 8e bc 3d 1d b6 bf 97 53 53 3f 7d 5e 12 bb
       -0.017361498 -1.4227673 0.8254942 -0.0022334151
000130 d8 be 9c bf 3d 81 4f 3f bb 37 53 c0 a0 8a 4b be
       -1.2245741 0.81056577 -3.3002765 -0.198771
000140 89 97 31 be 5f c4 bf c0 3d 8f a5 be 25 ae 4c 3b
       -0.17342962 -5.992721 -0.32335845 0.0031231728
000150 ae 29 ec bf 4e 67 79 3f 16 c7 ad 3e 62 9e c4 3c
       -1.845022 0.97423255 0.33940953 0.024001304
000160 90 d4 18 3f b1 54 25 3e d5 91 9d bc 9b d7 81 bc
       0.59699345 0.16145588 -0.019234577 -0.015849879
000170 a7 e9 bd be 91 11 61 3c cb 6a bc 3c 74 7f 20 bf
       -0.37092325 0.013737098 0.023000142 -0.6269448
000180 a2 ff 06 3e 66 db 44 bd 45 83 ca bd 50 da 5a bc
       0.13183454 -0.048060797 -0.09888319 -0.013357714
000190 ec 1e 23 3d 3e 41 12 3e 70 aa 90 3e 62 46 77 3f
       0.03982441 0.142827 0.28255033 0.9659177
0001a0 e1 a1 56 3e 53 c0 9c be fc 24 0a 3f aa 97 72 3e
       0.2096019 -0.30615482 0.53962684 0.23690668
0001b0 6a 4a a9 3a f5 5f 5c bf 9c 9a 99 3f 99 7a 6d 3c
       0.0012915854 -0.8608392 1.2000308 0.014494562
0001c0 71 64 e7 be f9 7e b8 3f 40 6e 63 be b7 00 a7 bd
       -0.45193818 1.4413749 -0.22210026 -0.08154433
0001d0 03 bb 55 bd 11 4f 23 bf 83 0b 82 be 2e 80 e2 3e
       -0.0521803 -0.6379252 -0.25399408 0.44238418
0001e0 1f 32 65 be f0 28 0b c0 11 1f 36 bf e1 a0 2f 3d
       -0.22382401 -2.1743736 -0.71141154 0.042878035
0001f0 59 75 b5 bf c4 97 2a bf 86 9f f5 bc 9c 17 e3 3f
       -1.4176437 -0.66637826 -0.029983293 1.774158
000200 01 5f 82 bf 69 b8 5c 3d 7f 5b 52 3f 6a 8a 1f bf
       -1.0185243 0.053886805 0.8217086 -0.6232058
000210 fc db 64 bf 9b 85 5c bf 65 37 4a 3d fd 7e c5 3c
       -0.8939817 -0.86141366 0.049369235 0.024108404
000220 cd a9 35 3e a2 24 a0 bd c0 9d af 3e 1c 39 c2 3b
       0.17740555 -0.07819487 0.3430004 0.005927218
000230 8b 34 52 be ea 79 8f be db 29 5c be 1b 3f a1 3d
       -0.20527856 -0.280227 -0.21500342 0.078733645
000240 b9 a0 f3 bd a0 fe 96 3f e1 5b 98 3e 11 ba 29 bf
       -0.1189589 1.1796455 0.29757598 -0.6629954
000250 1a a8 95 3e 7a 5d 25 be c2 a5 2f 3d 48 7e d9 3e
       0.29229814 -0.1614894 0.04288269 0.42479157
000260 2a 7c 0f c0 32 72 9f 3c 53 e3 06 3e 59 b0 09 c0
       -2.2419534 0.019463632 0.13172655 -2.1513884
000270 93 bc 0f 3c fb bc 51 bf 00 90 1c bf 81 25 ba ba
       0.008772987 -0.81928986 -0.61157227 -0.0014201851
000280 a4 bf 0a bf d5 53 d8 be 5b 3c e6 bd 64 81 91 bf
       -0.5419867 -0.4225146 -0.11241981 -1.1367612
000290 11 73 07 bf 14 76 f9 bc 8f 0c c6 be 5e d9 9d bf
       -0.5290995 -0.030451812 -0.38681456 -1.233196
0002a0 01 02 05 c0 c0 79 b4 3e b7 42 22 3f be 53 e3 bc
       -2.0782473 0.35249138 0.6338305 -0.027749892
0002b0 8e 40 91 3e 41 67 30 3f 19 13 e9 bd cd 7d c9 bf
       0.28369564 0.6890755 -0.11380596 -1.5741516
0002c0 fe c0 a4 3e e7 ef 43 3d 21 6d b0 be 09 6b c3 be
       0.3217849 0.04783621 -0.3445826 -0.381676
0002d0 5d 7d 02 bd 73 e5 87 3e 3f 55 37 3f cc 48 cd 3c
       -0.031857837 0.26542243 0.7161445 0.025059126
0002e0 0d 0f 9d 3d 53 a9 9a 3e eb 3b 77 3d 72 d1 d9 bf
       0.07668886 0.3020731 0.060359877 -1.7017043
0002f0 d6 eb b3 3f 27 f7 f0 3c a9 be df bf a5 2f 96 3f
       1.4056346 0.029414726 -1.748006 1.173329

GAT_layers.0.f.bias f4 [32]
000000 24 fc 7c 3d 73 13 06 c0 ab 32 87 3e 1d e1 81 be
       0.061763898 -2.094937 0.26405844 -0.2536706
000010 d6 20 91 3e 89 26 f8 3e e1 62 f6 bd 99 f1 d7 3d
       0.28345364 0.484669 -0.120305784 0.10544128
000020 9a b8 c0 bd f8 af 94 3f a3 96 f0 3e 69 0a a5 3f
       -0.0941021 1.1616201 0.46989927 1.2893802
000030 22 d5 95 3f 94 c8 38 3f c0 37 c3 3d 30 1f 65 3f
       1.1705668 0.7218106 0.09532118 0.89500713
000040 96 23 a9 bd 21 ad 8d bf 25 12 d9 3d 03 a0 2b 3f
       -0.082587406 -1.106846 0.10599164 0.67041034
000050 a4 d3 45 3d 76 ec 99 bf ee a3 10 3f 61 e3 8f 3d
       0.04829754 -1.2025287 0.56500137 0.07025791
000060 79 c9 c8 be 23 24 55 3f 01 a1 ab 3f bc 73 5b 3f
       -0.3921621 0.83258265 1.340851 0.8572347
000070 64 48 14 bf 87 90 9b 3e 23 4b 20 bf cc 6f 85 bf
       -0.5792296 0.30383703 -0.6261465 -1.0424743

GAT_layers.0.w.weight f4 [1, 6]
000000 db 7e a7 bd 15 6e b4 3f 02 87 a2 3e 0c 88 3f 3d
       -0.08178493 1.4096094 0.31743628 0.046760604
000010 72 37 f0 bf f0 38 ee 3e
       -1.876692 0.46527815

GAT_layers.1.f.weight f4 [64, 64]
000000 c8 f9 d1 3e 8e be 33 40 91 4c 5c 3d 4c 3c 57 3d
       0.4101088 2.8085055 0.053783957 0.052547738
000010 97 6f a8 3e 96 6b d7 3d 28 a4 44 bc 46 93 c3 be
       0.32897636 0.10518567 -0.0120020285 -0.38198298
000020 7b b9 11 bf b0 18 3b 3c f0 5c 67 be dd 5b 94 bf
       -0.56923646 0.01141946 -0.22594047 -1.1590534
000030 0e 41 0e bf 51 28 0f bf a7 67 58 bf 64 90 03 3d
       -0.55568016 -0.5592089 -0.8453316 0.032120124
000040 17 7b 00 3e c0 cb 57 3d b5 f9 53 bf 5d 64 95 3e
       0.12546955 0.052684546 -0.828029 0.29178134
000050 86 80 55 3e d7 d6 d5 be 3c 98 21 bf 1f 9e 35 3f
       0.20849809 -0.41765472 -0.63122916 0.709444
000060 0f 86 eb ba 70 b0 8e 3e 1c cb a9 bd 73 0e fa 3d
       -0.001796903 0.27868986 -0.08290693 0.12209787
000070 d2 a5 b3 be 85 18 16 3f 3d 6f 82 bf 44 0c d3 be
       -0.35087448 0.58631164 -1.0190197 -0.41220295
000080 22 f6 0b 3f 26 74 b6 3f cb 1b 91 3e 9a b8 8a 3d
       0.54672444 1.4254196 0.28341517 0.06773491
000090 2c 08 93 bd 64 7b 01 bd c2 55 e1 bd 54 d6 97 3d
       -0.07179293 -0.031611815 -0.11002685 0.07413927
0000a0 e8 4e 07 3f 97 ec 38 3f 33 e8 ef be fe cc 71 bf
       0.52854776 0.7223601 -0.4685684 -0.9445342
0000b0 f2 6d 1a 3f 12 a7 05 be 19 3b 0e 3e ca 22 a8 3e
       0.60324013 -0.13052014 0.13889731 0.32839042
0000c0 96 01 8c bb 2c ef d8 bd 71 0e 53 3e 5a 07 46 3f
       -0.00427265 -0.105924934 0.20610978 0.7735497
0000d0 da f2 d7 3e b9 11 13 bf 0a c1 18 3e 72 c8 5e 3d
       0.4217747 -0.5744892 0.14917389 0.05439038
0000e0 a3 c0 86 3e 25 d0 06 3f fa 4d b9 be f7 35 74 be
       0.26318845 0.52661353 -0.36192304 -0.23848711
0000f0 f0 e5 17 3f 61 c1 1b bd 07 ad c0 be ce cc 1f bf
       0.5933523 -0.038026217 -0.3763201 -0.6242188
000100 42 9e 69 bc 85 03 87 3f f0 0f 00 3f 80 ee 8b 3b
       -0.014258923 1.0547949 0.5002432 0.004270375
000110 35 d3 cf 3d 56 da 85 be f6 c9 59 be 14 87 9c bf
       0.101477064 -0.2614314 -0.21268448 -1.2228723
000120 58 74 27 3f a2 2a d9 3c ad a1 f8 bf be 2f 05 bf
       0.654119 0.026509587 -1.942434 -0.52025974
000130 ea 17 05 3d 08 ed dd be 75 01 19 c0 c9 63 3a bf
       0.03249351 -0.43344903 -2.390714 -0.7280851
000140 43 0f 17 3e 10 d8 38 3f e0 4b 7c 3e 94 97 b7 bf
       0.14751916 0.72204685 0.24638319 -1.4343133
000150 b9 ea 5d be a0 d8 29 be ac 8b f8 bf cc 01 c6 3d
       -0.21671571 -0.16586542 -1.9417624 0.096683115
000160 f5 c0 07 bf 8e 8a 41 bf 72 a0 24 c0 b5 57 d2 be
       -0.53028804 -0.7560204 -2.5722928 -0.4108254
000170 90 37 3f bf fa a9 64 bf 7d db 42 bf e8 9d 26 3f
       -0.74694157 -0.89321864 -0.7611616 0.65084696
000180 2c fd 84 be 5c ad 74 3f 74 3a 79 3e 46 2d dd 3d
       -0.25974405 0.95577025 0.24338704 0.10799651
000190 ff 6d 0a bf 16 9e 2b bf 74 36 09 3e cb cb 86 be
       -0.5407409 -0.67038095 0.13399678 -0.26327357
0001a0 b1 9a 75 3d a9 f5 76 be 89 0d df bf f1 5e 8c bf
       0.05996198 -0.2411715 -1.7426006 -1.0966474
0001b0 77 00 63 be d7 ad 0a be f0 92 74 c0 76 57 e7 be
       -0.22168146 -0.13542877 -3.8214684 -0.45183915
0001c0 ff 27 0e 3d cf 50 d7 3e 21 84 fc 3b 24 bb c9 be
       0.034706112 0.4205384 0.0077061807 -0.3940059
0001d0 ec 40 7d bf ee 4e 9c 3d 96 23 0f bf d7 1c 3a bd
       -0.9892719 0.07632242 -0.55913675 -0.04543766
0001e0 d5 92 1b bf e9 90 3d bf 29 e6 b0 bf b1 dd 8a be
       -0.6077092 -0.7404924 -1.3820239 -0.27122262
0001f0 a6 6f 86 bf 96 ff a3 be 87 0d 26 be 14 b1 3c 3f
       -1.0502822 -0.32030934 -0.16216098 0.737077
000200 dd cd 00 bf 7c 88 05 40 57 e0 3a be 16 ff c1 3d
       -0.5031412 2.0864553 -0.18249641 0.09472482
000210 b3 22 6b bd 02 e7 88 3d 0c 8c b2 bd e6 39 b0 be
       -0.05740614 0.06684686 -0.08718118 -0.34419173
000220 b3 7b f8 be b3 9f a6 be 53 61 c0 be 1f 37 89 bf
       -0.48531875 -0.32543716 -0.37574252 -1.0719947
000230 47 9f 83 be 81 cc 1f bf b7 9e f2 be e9 6a 36 3b
       -0.25707456 -0.62421423 -0.47386715 0.002783472
000240 2a 4b 61 3e ae 55 24 be e1 83 a7 be 6b 6d b0 bd
       0.22001329 -0.16048309 -0.32717803 -0.0861462
000250 b4 fa 87 be b8 54 db 3d 97 a1 41 bd 3e aa 01 3f
       -0.2655846 0.10709518 -0.047273245 0.50650394
000260 e7 8d 0f bf 67 91 b7 be 31 e5 18 bb d1 73 02 bf
       -0.560759 -0.3585312 -0.0023329968 -0.5095797
000270 b5 40 8e bf c1 34 18 be 34 5a d7 bc f8 c6 24 be
       -1.1113497 -0.14863874 -0.02628813 -0.16091526
000280 05 35 4d 3e b3 5a eb 3e c4 87 3c 3e 94 97 b2 bd
       0.20039757 0.45967636 0.18411165 -0.087203175
000290 3f a5 e1 3e 08 5f b1 3e 6d 6f 51 bd a5 04 95 3c
       0.44071385 0.34642816 -0.051131655 0.018190691
0002a0 f7 84 06 3f 9a be 50 3f 19 31 85 be 99 d1 23 bf
       0.5254664 0.81540835 -0.2601402 -0.63991696
0002b0 f9 bc 2f 3f e4 00 60 be 0c 74 e9 3d 5b a2 0c 3f
       0.68647724 -0.2187534 0.11399087 0.54935235
0002c0 61 f3 cd 3e bb a5 e3 be 77 da 0d 3f 53 a7 83 3e
       0.40224746 -0.4446238 0.55411476 0.25713596
0002d0 c9 26 4d 3e 33 b0 18 be 71 f0 1e 3f 04 72 5e bd
       0.20034327 -0.14910965 0.62085634 -0.054307953
0002e0 72 60 5d 3e cc 0d 9e be 7b 5a 1f bd 51 71 97 bd
       0.21618822 -0.308699 -0.03890465 -0.0739466
0002f0 d0 dc b5 bd ac 76 0d 3e 9a 50 8e bd 35 8e 00 be
       -0.08880007 0.13814801 -0.06948967 -0.12554248
000300 8c 47 d1 be 74 eb 2e 3e c3 46 3a bf 2b 3f 0c 3e
       -0.40874898 0.17082006 -0.72764224 0.13695972
000310 41 1e 10 bf 71 cb 73 bf 0d 8a 25 3d 90 5b 14 3e
       -0.56296164 -0.952323 0.04041486 0.14488053
000320 19 70 1e be 26 f3 8c be f6 af 23 c0 cd f4 1f 3f
       -0.1547245 -0.27529258 -2.5576148 0.6248291
000330 14 a2 a3 be 02 ae 0b bf 3e e9 3f c0 78 8c ee bc
       -0.31959593 -0.5456239 -2.998611 -0.029119715
000340 c3 b5 41 3e 7d 9d c7 be a3 96 9f bd 52 f9 a2 bc
       0.18916993 -0.38987342 -0.077924035 -0.019894276
000350 09 20 3c be 46 2c 61 3e 0b 75 88 bf 51 51 0c bf
       -0.18371595 0.21989545 -1.0660719 -0.5481158
000360 10 50 6b be 98 32 8b 3e 9e fa f6 3c 14 9c cd bd
       -0.2297976 0.27187037 0.0301488 -0.10039535
000370 0b b0 8a bf 39 45 2b 3e 32 91 50 3e c7 10 eb 3e
       -1.0834974 0.16725625 0.20367888 0.45911238
000380 41 34 88 bf bb 8f c5 bf be 9a 73 3e 58 5d c0 bc
       -1.0640947 -1.5434488 0.23789498 -0.02348201
000390 be b3 e3 be b7 e6 cb bc b9 51 ec bc 29 10 51 be
       -0.4447307 -0.024890287 -0.028847562 -0.20416321
0003a0 47 4c 86 3e e0 40 f8 bd 5b 0f 26 be 0a 04 4b bf
       0.2623007 -0.12121749 -0.16216795 -0.7930304
0003b0 e4 01 61 be 42 30 12 bf 34 16 3e 3f 29 bb 11 bc
       -0.21973377 -0.57104886 0.7425263 -0.00889472
0003c0 cd 7b a3 bc a7 75 c9 be 8b 16 6e bc 56 1c 3c bf
       -0.019956494 -0.39347574 -0.014531742 -0.7348074
0003d0 c0 3e 86 be 46 3c 19 3e 9d 66 0d 3f ca 18 1d bf
       -0.2621975 0.14964399 0.552347 -0.6136595
0003e0 9b 28 1f bf 0a a3 59 be d0 3d 07 bf b1 59 aa 3d
       -0.62171334 -0.212536 -0.52828693 0.083178885
0003f0 48 60 1b 40 5d f3 1e be c0 39 86 bd 20 7e 73 3e
       2.4277515 -0.15522523 -0.06553984 0.23778582

GAT_layers.1.f.bias f4 [64]
000000 eb 93 0a 3f 3c 73 75 3e c7 04 70 3f f2 bf 08 3d
       0.54131955 0.2396974 0.9375729 0.03338618
000010 a8 5b aa bd 75 34 3f bd c4 ab 72 be 91 1e 89 be
       -0.08318263 -0.046680886 -0.23698336 -0.26781133
000020 2e 7f ac 3f 5d 04 0a bd 4e 2e 5d be 0b 5f c9 3c
       1.3476312 -0.033695567 -0.21599695 0.024581453
000030 55 ee 84 be 50 40 13 bf c8 95 07 3f 4d 22 b9 be
       -0.25963083 -0.5752001 0.52962923 -0.36158982
000040 47 16 5c 3d 80 72 fd be 0c 5e fc 3c 10 04 7b 3d
       0.053732183 -0.4950142 0.030806564 0.06128317
000050 6c 0b 65 bd 3d c6 aa 3e fa 12 6d bc 6c 23 38 be
       -0.055919096 0.3335437 -0.014469856 -0.17982262
000060 e3 48 d7 3e 70 02 12 3f 10 ac 96 bd fe fe 11 be
       0.42047796 0.5703497 -0.07357037 -0.14257428
000070 3e c8 6e be bf bb a4 bd 01 be a9 be fa 68 d8 3e
       -0.23318574 -0.08043622 -0.33152774 0.4226759
000080 b6 e3 25 3e 63 09 23 be f0 f3 af bd 63 b6 83 be
       0.16200146 -0.1592155 -0.08591449 -0.25725088
000090 8b 13 04 3e 28 c9 16 be 36 c1 a6 bc 1c 07 33 3e
       0.1289808 -0.14725173 -0.020355802 0.17483181
0000a0 82 cb 5f 3e 6d b8 27 be 3d fa 66 bd fe 61 b1 3e
       0.21854976 -0.16378947 -0.05639099 0.34645075
0000b0 04 2d a5 bd 46 5d d1 3e c3 83 12 be 1a 22 87 3e
       -0.08065227 0.40891474 -0.14308076 0.26393205
0000c0 d9 3d d8 bd fa c0 88 3e 3f 4b f4 bd 08 56 9d bd
       -0.105586715 0.2670973 -0.119284146 -0.07682425
0000d0 5d 94 19 3d 33 19 3d 3d 43 cd 19 be 02 a7 4c be
       0.037495006 0.04616661 -0.15019707 -0.19985583
0000e0 4c 7d 8e 3e 81 dc 00 3f 82 cc 2a be c7 eb 83 be
       0.2782997 0.5033646 -0.16679576 -0.2576582
0000f0 f2 0c 9f 3e 11 5f 03 be 8b 7a 9c bd 55 6a 6b bd
       0.31064564 -0.12829234 -0.07640561 -0.057474453

GAT_layers.1.w.weight f4 [1, 64]
000000 d7 28 9a be b8 42 69 3e f7 9b 94 bd e8 81 5c bd
       -0.30109283 0.22779357 -0.072563104 -0.053834826
000010 e8 ec e1 be c0 c3 82 3e 47 ff fd bd 72 8e b7 3c
       -0.44126058 0.2553997 -0.12402206 0.02240679
000020 5a 18 9e be 4e 51 8f bd 1c 6b 67 3d 53 e6 92 3e
       -0.30877954 -0.069979295 0.05649863 0.28691348
000030 c1 c8 84 bd ad 6b f2 3d 9b 36 b3 3c 7c b0 a9 bd
       -0.06483603 0.11836944 0.021876624 -0.08285615
000040 79 8f c4 bc eb ae b0 be b8 5c 8a bd f9 f3 a9 3d
       -0.023994194 -0.34508452 -0.06755966 0.08298487
000050 39 8b 41 bd a9 66 b4 bd 75 66 1a bd 98 20 b4 bd
       -0.047251914 -0.08808643 -0.037695367 -0.08795279
000060 e9 df 9f be e9 1d 45 bd 47 0d ec 3d b4 80 19 be
       -0.31225517 -0.048124228 0.1152597 -0.14990503
000070 1c 53 9d 3d 25 f8 88 bd 99 14 d7 bc bc 22 bf bd
       0.076818675 -0.06687955 -0.026254939 -0.09332797
000080 bc c2 95 3f bf 2c 64 be c7 97 03 3f d8 c4 79 be
       1.1700053 -0.22282694 0.5140347 -0.24391496
000090 01 e6 02 3f 23 ea 41 3f 00 59 9e 3d ee 04 2e bf
       0.5113221 0.7574789 0.07731819 -0.6797627
0000a0 eb 5f 96 be 10 35 77 3e 63 99 41 be 52 e6 0a 3f
       -0.29370055 0.24141335 -0.18906169 0.5425769
0000b0 7f 20 11 3e c4 46 82 3f 09 0a 9d bf 96 28 a4 be
       0.14172553 1.0177846 -1.2268687 -0.32062215
0000c0 23 c1 e8 be 70 88 9d 3e f0 ed 12 bf f9 55 75 3f
       -0.45459852 0.30768156 -0.57394314 0.9583431
0000d0 57 46 df be 9e 1a 39 bf 45 7a a8 bf e4 18 ea bd
       -0.43608353 -0.7230624 -1.3162314 -0.11430529
0000e0 16 dc 16 3f 91 f6 eb be 90 bf 43 3f 1c 54 5a be
       0.58929574 -0.46086553 0.76464176 -0.21321148
0000f0 c5 d9 fc 3d 44 c2 c9 be 1c 7c 01 bf 28 b9 40 be
       0.12346224 -0.39406025 -0.5058 -0.18820632

GAT_layers.2.f.weight f4 [64, 128]
000000 82 32 31 bf dd 3e 43 bf 84 72 8e bf 4a 12 e5 be
       -0.69217694 -0.76267797 -1.1128697 -0.44740516
000010 3a 06 2a be 67 d1 d2 be 59 00 85 3d da 51 be bf
       -0.16603938 -0.41175386 0.06494207 -1.4868729
000020 1b 26 3a be 97 b4 2a be f2 d2 02 be 82 bc 3b bf
       -0.18178599 -0.16670452 -0.12775782 -0.73334515
000030 8f 95 36 3d de 51 fb be 8d 2a e0 3e 15 cd 13 bd
       0.044576224 -0.49085897 0.43782464 -0.036084253
000040 5c f9 46 bf b2 91 e7 3c fc 47 3a be 64 e7 b8 bd
       -0.7772424 0.028267715 -0.18191522 -0.09028509
000050 e5 ba bd bd d5 85 84 bf 4e f3 66 bf cd 09 00 3c
       -0.09264163 -1.0353342 -0.90215003 0.007814837
000060 50 cc 20 bf ed 5f d4 bd e8 a1 89 bf ea 4c ba 3a
       -0.62811756 -0.10369859 -1.0752535 0.0014213596
000070 d1 ef 67 bf b5 3d 49 bd a4 80 d0 be fc f8 35 bf
       -0.90600306 -0.049131114 -0.40723145 -0.71083045
000080 34 30 82 bd 36 68 a1 3c 2d 59 f2 bd a0 e5 ac be
       -0.0635685 0.019703012 -0.11833415 -0.3376894
000090 4e d7 33 bf 45 83 7a bd 85 d7 0d bf ac b9 02 be
       -0.70250404 -0.061160345 -0.5540698 -0.1276614
0000a0 05 9d 90 be b2 ae ee bd 56 3b 8d bf b5 46 b7 bf
       -0.28244796 -0.11654414 -1.1033733 -1.4318453
0000b0 3d 13 c1 be 0e 33 62 bf c2 ac 7e bd 60 e3 2d bf
       -0.3770999 -0.88359153 -0.062176473 -0.6792507
0000c0 cd 0f 29 be 71 84 24 bf 21 ff 2e bb 01 aa 04 3d
       -0.16509934 -0.6426459 -0.0026702362 0.03238869
0000d0 36 4f f8 be db df 38 be de 35 ac bf df 54 73 be
       -0.48497933 -0.18054144 -1.3453939 -0.23762845
0000e0 df 2c ec 3d 37 61 a0 bd 25 41 31 3e 54 f8 77 3e
       0.11531996 -0.07831042 0.17310007 0.24215823
0000f0 a0 45 ce bd 7b 28 cf 3d c0 3f d2 bd 75 b1 55 be
       -0.10071874 0.10115143 -0.102660656 -0.20868476
000100 b4 30 ad 3e 56 da 54 3f 27 51 aa be a0 64 22 bf
       0.3382622 0.83145654 -0.3326504 -0.6343479
000110 71 50 d0 3d c8 33 2d bf ec db dd bd 9c 29 2d 3d
       0.10171593 -0.67657137 -0.108329624 0.04227601
000120 61 bf be bf be 62 0b be b3 0c 16 be 32 8a 2a be
       -1.4902154 -0.13611886 -0.14653282 -0.1665428
000130 d9 a4 4e 3d ea 34 22 3f d6 0d 48 3f 4f 89 da be
       0.05045018 0.6336199 0.7814611 -0.42682883
000140 18 5c 6a 3d 16 d5 16 bf 25 5c 06 3f 07 9f 9e 3e
       0.057216734 -0.58918893 0.5248435 0.30980703
000150 ba 27 dc 3c 63 92 9c 3d 44 7c 4e be 6f aa 9f 3e
       0.026874412 0.076451086 -0.20164591 0.31184718
000160 8b 74 ea 3f 75 72 80 bf d9 3d 1d 3f 27 b4 03 be
       1.8316816 -1.003493 0.614225 -0.12861691
000170 d0 52 8c 3b ae eb 33 3d 32 7f 13 3f 14 08 06 bf
       0.004282333 0.043925934 0.5761596 -0.52356076
000180 8c 73 33 c0 2a de 45 3e f8 93 bf 3e 74 01 92 3d
       -2.8039274 0.1932303 0.3741758 0.071291834
000190 39 d6 46 be 8e 84 35 3f c7 8c 3a 3f 17 aa 8f bf
       -0.19417657 0.7090539 0.7287106 -1.1223782
0001a0 99 a1 1c 3f 74 90 ac 3d f9 6a e8 3e 32 c8 06 3f
       0.6118408 0.0842599 0.45394114 0.52649224
0001b0 11 02 2d bf 49 ba d5 3e d5 13 2a be 78 fc 9b bf
       -0.6758128 0.41743687 -0.16609128 -1.2186422
0001c0 59 2f 7b bd 07 23 d5 be 3e 6d e0 3d e1 03 ea 3d
       -0.06132445 -0.41628286 0.10958336 0.11426521
0001d0 0a f1 2f 3d 48 73 22 be 24 33 4e 3e 1b 99 ef be
       0.042954482 -0.15864289 0.20136696 -0.46796498
0001e0 09 f5 29 3f 74 3d d7 bf 9c 6b cc bd 7e 85 89 bf
       0.6638952 -1.6815629 -0.09981462 -1.0743864
0001f0 64 03 bf 3e 5c 5e 2b be ef dc d2 bd 00 70 1d be
       0.37307274 -0.16735214 -0.10296046 -0.15374756
000200 fe b4 17 3f ad 14 2f bf 44 0e 5a 3f 7b ca 3e bd
       0.5926055 -0.68390924 0.8517802 -0.04657982
000210 75 59 5f 3e 01 13 3b c0 80 ee 09 be 52 c1 df be
       0.21811469 -2.923035 -0.13469887 -0.4370218
000220 f2 1d da bf 65 f0 8e 3e 07 f0 38 bd 71 75 60 3e
       -1.7040389 0.2791778 -0.045150783 0.219198
000230 24 03 b3 bd e0 f9 71 3e 86 cf 23 bf 9e 78 69 be
       -0.087408334 0.23630476 -0.6398853 -0.22799918
000240 f9 e0 51 3d 62 2e 44 be 6e ae e1 be 3f 00 d4 be
       0.05123994 -0.19158319 -0.44078392 -0.41406438
000250 46 eb 33 3e 48 12 85 3e eb 57 03 be ec 5d 27 3c
       0.17570218 0.2599051 -0.12826507 0.010215264
000260 1b d4 bb 3c 88 29 21 3d 9e ac d9 3d 0b 96 36 3e
       0.022928288 0.039346248 0.10628627 0.17830674
000270 59 95 34 3e 93 60 2d 3e 55 77 26 3e d1 e6 15 3f
       0.17635097 0.16931371 0.16256459 0.5855532
000280 5a d9 d8 3d f2 05 2a 3e b8 00 12 3e fe 02 97 3d
       0.105883315 0.1660383 0.14258087 0.073736176
000290 2e a7 7c 3e 9e 7d c5 3e b4 7f a3 bc e4 43 18 bf
       0.24673149 0.385724 -0.019958355 -0.5947859
0002a0 53 f0 59 3e d7 08 4c be c0 40 65 3e e9 1e 06 bd
       0.21283083 -0.19925247 0.22387981 -0.032744322
0002b0 c3 54 4f c0 34 9d 00 3e af 12 bc 3d 9f 7a ba bd
       -3.2395484 0.12559968 0.09183251 -0.09105419
0002c0 64 ab 2a 3e 13 68 a0 3e 93 33 90 3e 37 42 40 3e
       0.16666943 0.31329402 0.28164348 0.18775259
0002d0 5c 34 47 3e 7c fb 62 c0 79 89 a9 be ff 7e 98 3d
       0.19453567 -3.5465994 -0.33112696 0.074460976
0002e0 10 aa 29 3f a2 cb d4 3e a5 6f ad 3d 06 c5 58 bf
       0.6627512 0.4156161 0.0846856 -0.84675634
0002f0 0d 63 5b 3e 7a af 77 3e bb 1c 7b 3e dc 2e 70 3e
       0.21424504 0.24188033 0.24522679 0.23455375
000300 80 1f 27 3e 6a 2c 8d bf c4 dc 02 3e a9 24 53 bf
       0.1632061 -1.1029179 0.12779528 -0.82477814
000310 38 11 82 bc ec 63 92 bf 76 d6 30 be fe 40 62 3d
       -0.015877351 -1.1436744 -0.1726931 0.055237763
000320 fe 41 a7 bf b9 37 b2 3e ac d1 51 3e 98 25 67 3e
       -1.3067014 0.34808138 0.2049014 0.22572935
000330 5c 29 c6 bd d4 2d 4f be 9c ed 93 be c1 5e 02 3e
       -0.096758574 -0.20232326 -0.2889222 0.12731458
000340 66 7e 3d be 38 4a c1 be 57 2a 4a bf 6e 7a 56 bf
       -0.18505248 -0.37751937 -0.78970855 -0.8378056
000350 56 a0 49 3e e2 47 02 be e4 74 22 3d da 47 84 3d
       0.1969007 -0.12722734 0.039662257 0.06459017
000360 4f 7e 94 be 5f 30 71 be 77 de 9f 3d 68 1c 7d 3e
       -0.29002616 -0.23553608 0.07806104 0.24717867
000370 bf 9b 31 be 9f 82 8e 3d 03 ea 62 be 57 e8 90 3d
       -0.17344569 0.06958508 -0.22159581 0.07075565
000380 24 1f 1f bf f5 bf 19 3d 62 a3 ea 3e c8 10 5e 3d
       -0.6215689 0.03753658 0.45827776 0.054215223
000390 a0 7d 80 be f2 5a 04 3f 7f c7 6c be c4 37 c8 be
       -0.25095844 0.5170127 -0.23122977 -0.39105046
0003a0 61 6a 6a 3d 84 13 82 bc 13 6b 12 3f 41 72 7e 3e
       0.057230357 -0.015878446 0.5719463 0.24848272
0003b0 81 d7 c9 bf a0 a0 22 3c 2b 94 af bd e4 f2 80 bf
       -1.5768892 0.009925991 -0.08573183 -1.0074124
0003c0 48 9e 08 bd 19 08 fb bd 0c fa 9d bc 51 4f 82 3e
       -0.033354074 -0.12257404 -0.01928427 0.2545114
0003d0 a6 26 81 be b1 d7 7e c0 7e 82 db be ee 52 2e be
       -0.252248 -3.9819148 -0.42872995 -0.17023823
0003e0 6b a9 ef 3e f1 a4 04 be 09 17 ac 3d b0 2d 2c bf
       0.46808943 -0.12953545 0.08402831 -0.67257214
0003f0 25 b6 aa be 11 c4 a9 3c 29 9f 01 3f 7f 32 9c 3d
       -0.3334209 0.020723375 0.50633484 0.07626819

GAT_layers.2.f.bias f4 [64]
000000 24 fc d9 be b4 ea 2d bb 2c ea aa be f6 69 92 bd
       -0.4257518 -0.00265376 -0.33381784 -0.07149117
000010 f2 33 88 be ca 18 0d bb 54 bf 81 be a4 08 8c bc
       -0.2660213 -0.0021529668 -0.25341284 -0.017093964
000020 91 1c db bb 6e c5 4e bd 54 80 29 bc 52 d9 69 bc
       -0.006686755 -0.050481252 -0.010345537 -0.014273005
000030 ab 9f 7d be 86 23 01 3e 48 b5 90 be 78 5d 7b bd
       -0.2476794 0.12611207 -0.28263307 -0.061368436
000040 58 87 2a be 75 70 0d bc 4f d7 42 be ff a8 95 be
       -0.16653192 -0.008632769 -0.19027446 -0.29230496
000050 f7 e7 ff b9 c6 2f 99 be c0 fc 64 bc 7f 56 77 be
       -0.00048810217 -0.2991926 -0.013976276 -0.2415409
000060 cc 9e bc bb b6 93 f1 bd 17 56 4d be d9 d0 90 be
       -0.0057562348 -0.11795752 -0.20052372 -0.28284338
000070 3f 7a 18 bc 0e 6b 8c be 5f db 16 bc 95 b0 84 bd
       -0.0093064895 -0.27425426 -0.009207576 -0.06478993
000080 ca 6e ba be 29 3e a4 bd 8f 55 31 bc 8a e8 33 bb
       -0.3641265 -0.080196686 -0.010823621 -0.0027451837
000090 34 9c f8 bc 3f 9a 5a 3d 2c 88 3b bd 49 62 7a be
       -0.030347921 0.053369757 -0.04578416 -0.24451555
0000a0 71 56 ab be 88 e8 39 be f9 ef b6 bc 72 db 2a bc
       -0.33464387 -0.1815511 -0.022331225 -0.010428296
0000b0 4c b2 9d be 0b a6 f6 bc 2b c5 6c be b0 f5 0f bf
       -0.30800092 -0.030108472 -0.23122089 -0.56234264
0000c0 38 1c c0 bd 28 b4 f9 bc 6f 54 8c bd 55 83 68 be
       -0.09380382 -0.030481413 -0.06852042 -0.22706349
0000d0 df cd e3 bd 4a 8c d0 3d 52 26 81 be ea a7 a3 bc
       -0.11123251 0.10183008 -0.2522455 -0.019977529
0000e0 b2 5c 41 be ab 62 ff bb f6 29 d3 bd 2a 0b a6 bc
       -0.18883017 -0.0077937446 -0.10310738 -0.020268995
0000f0 7a a5 97 bc 32 67 09 be 9f cf 4c bc e5 22 0f bf
       -0.018511523 -0.13418272 -0.012500673 -0.5591262

GAT_layers.2.w.weight f4 [1, 128]
000000 79 dc ac be f4 a4 35 bf 9e 57 1c 3f 05 1b 20 be
       -0.33761957 -0.70954823 0.61071193 -0.15635307
000010 e8 e3 29 3c 13 20 69 c0 5c d7 e5 3b 8d ca 92 be
       0.0103692785 -3.6425827 0.007014198 -0.2867016
000020 4b 0a 42 bf c7 2f ab 3e 1f b2 5b bd da 83 1f be
       -0.75796956 0.3343489 -0.053636666 -0.15577641
000030 7a 76 ce 3c 46 b6 9d bd a4 bd 2d bf 4b 0b 9a be
       0.025202978 -0.077007815 -0.67867494 -0.3008674
000040 5b 2c ed bd a9 64 0a bf 1e 51 d3 3c 53 b6 c6 3e
       -0.11580726 -0.54059845 0.025795516 0.38810977
000050 af 35 9a bd 10 fc e2 bd e7 c9 06 3e a2 d3 e0 bd
       -0.075297706 -0.11083233 0.13162957 -0.10977866
000060 69 31 0c bd 8d 6b 9b be 4b a6 b1 3e 2c dc 7a bd
       -0.03422681 -0.30355492 0.34697184 -0.06124513
000070 8d 32 c4 3a af 06 ab 3d d5 43 a8 be da 0c fa 3d
       0.0014968679 0.08350884 -0.32864252 0.122094825
000080 51 28 88 be 04 b6 09 be 67 d1 28 bd b5 24 10 3d
       -0.2659326 -0.1344834 -0.041215327 0.035191257
000090 2b ca 08 be 0a d8 38 3e 93 c5 11 3f 9f 14 80 be
       -0.13358371 0.18051162 0.569421 -0.25015733
0000a0 a6 40 0e bf 85 9f 0b bd 18 1b 63 3f cc 17 1c 3d
       -0.55567396 -0.034087677 0.88713217 0.038108632
0000b0 7b 11 27 c0 82 9b de 3c ff 6b 27 bd e9 a4 c7 be
       -2.610442 0.027173761 -0.040874477 -0.38993004
0000c0 39 d9 4c 3e 6d 03 08 be 17 ab 2f be dd 0d 8b 3d
       0.20004739 -0.13282557 -0.1715511 0.067897536
0000d0 c6 bb da bd f0 1e 05 c0 ef b3 15 bf 72 de 0a bf
       -0.10680346 -2.0800133 -0.5847768 -0.54245675
0000e0 95 17 e9 3e 31 f5 3b 3c 24 a0 e2 be 95 8c 9c bf
       0.45525804 0.011472032 -0.44262803 -1.2230402
0000f0 3a 5a 15 bd d6 0a e2 3d c9 4b 38 be 8f 58 b6 3d
       -0.036463 0.11037223 -0.1799766 0.0890361
000100 84 b3 98 3e bb 0b 05 bf 78 2a 4a bf 40 98 1a bf
       0.2982446 -0.51971024 -0.7897105 -0.60388565
000110 55 0a 30 3e ea 22 14 bf 9d d1 92 be 6b 2e 12 3e
       0.17191441 -0.57865775 -0.28675547 0.1427552
000120 df 5c cf bf ee 75 78 3e 68 d9 60 bd 84 b7 77 bb
       -1.6200217 0.24263737 -0.054894835 -0.0037798593
000130 9a 48 7f 3d e9 ab 8b be 6d cf 03 3f be f0 b5 3f
       0.062325098 -0.27279595 0.5148838 1.4214094
000140 e6 cd 3b 3d db 0f ab 3e b3 b7 37 bf 56 c5 c3 be
       0.045850657 0.33410534 -0.7176468 -0.38236493
000150 87 a0 53 3e 1e 8d 79 bf 55 2e de be dc ea 6a be
       0.20666705 -0.9748095 -0.43394724 -0.22941154
000160 30 92 a2 3e ba 77 e3 3e 0e d1 a4 be 91 d4 23 be
       0.31752157 0.44427282 -0.32190746 -0.15999056
000170 1d fd 81 be be 46 35 3e 1d e4 af be bb 38 b8 3e
       -0.25388423 0.17702767 -0.34353724 0.35980782
000180 40 ba 04 be c7 5e c4 3d 27 32 91 3e 4e 25 b2 bd
       -0.12961674 0.0958839 0.28358576 -0.086985216
000190 3f 05 46 bf 14 cf 5d 3f 28 6c 56 3e 9c ab 1d 3f
       -0.77351755 0.866441 0.20939696 0.6158998
0001a0 92 a5 ee 3e f4 1f 81 be 1b 1b ad 3f 92 6f 49 3f
       0.46610695 -0.2521969 1.3523897 0.7868587
0001b0 2e e6 5f be 57 16 41 3f 19 cf 7c bd d7 84 45 bf
       -0.2186515 0.7542471 -0.06172094 -0.7715582
0001c0 6e 6e 10 39 06 e5 04 be ed e0 5f 3e 65 7d 3e 3e
       0.00013774048 -0.1297799 0.21863146 0.18602522
0001d0 9b 2a 87 bf e2 f3 3f be 17 b6 9b 3f 40 82 8e 3e
       -1.0559877 -0.18745378 1.2164944 0.27833748
0001e0 4a 4d 43 bf 9d 5d 15 be 7b 51 f4 3e 0a 88 50 bd
       -0.7628981 -0.14586492 0.47718415 -0.050910987
0001f0 2a b3 8a 3e ce 9c 93 3c d7 c6 83 3e 71 df 93 bd
       0.27089816 0.018019106 0.2573764 -0.072203524

MLP_layers.0.weight f4 [32, 64]
000000 a8 80 09 bd 1b 64 e5 bc a6 2d 56 3b a0 59 1d bd
       -0.03356996 -0.028001836 0.0032681017 -0.03841555
000010 94 65 98 3c 1a 65 63 3d 55 ce 09 3e f5 8f 61 3c
       0.018603124 0.05551634 0.13457616 0.013767232
000020 10 87 80 bd 70 3e 78 bd 05 7b a6 bd d0 5a b3 3b
       -0.06275761 -0.06060642 -0.08128933 0.005473472
000030 74 4e 27 be 4d fe a9 3d 95 db c3 3d 04 31 45 bd
       -0.16338521 0.08300457 0.09563366 -0.048142448
000040 c9 d9 95 3d 35 fa c4 bd 6e c8 c9 bd 8d 94 8d bc
       0.0731693 -0.09618036 -0.09852682 -0.017282749
000050 72 0c f7 3c d9 db ea 3d 40 a0 0b be a2 ce 59 bd
       0.030157302 0.11467714 -0.1363535 -0.053175576
000060 85 99 c2 bd d5 14 0d be fd 8b 1d be 9b 55 5a bd
       -0.09501938 -0.13777478 -0.15385433 -0.053304296
000070 74 1d 46 be 4d 36 30 bd 69 79 9a bd 86 91 0c bc
       -0.19347173 -0.043020535 -0.075426884 -0.008579617
000080 d7 c5 6d bd bc 81 cb bd f3 69 14 be 72 22 4c bd
       -0.058050003 -0.09936854 -0.14493541 -0.049837537
000090 c4 7c 18 be 8f 60 62 3d 81 37 55 bd 65 bd 6c 3d
       -0.14891344 0.055267867 -0.052054886 0.05779781
0000a0 a2 f7 b8 3b fe 30 ee 3d bf ac 42 be 89 52 54 bd
       0.0056447545 0.11630438 -0.1901121 -0.051836524
0000b0 81 ad 22 bc a5 cd 50 bd 81 c8 1e be 09 f9 8d 3d
       -0.009929062 -0.050977368 -0.15506174 0.06932265
0000c0 30 f2 a3 bc 94 36 38 be 47 3d 16 3d 51 06 d2 bd
       -0.020012945 -0.1798957 0.036679532 -0.10255111
0000d0 ef d8 00 be 09 a1 44 3c 89 37 64 3d b8 45 a8 bd
       -0.12582754 0.012001284 0.055717025 -0.08216423
0000e0 c8 08 14 be 3c d8 41 3d 5b 8d 49 bc ad 87 16 be
       -0.14456475 0.047325358 -0.012301768 -0.14700194
0000f0 8c 58 3b be c6 27 8a bd 05 3e 5e bd 80 25 25 be
       -0.18295497 -0.067458674 -0.054258365 -0.16127586
000100 73 00 4a bd f2 73 fb bd bd 97 93 bc 91 01 dc 3d
       -0.049316835 -0.12277974 -0.01801669 0.10742486
000110 19 79 a0 3d 2a 53 16 bc cd f0 96 bc a6 dc 37 3d
       0.078355975 -0.009175101 -0.01842537 0.04488816
000120 ea 23 84 bd 80 24 03 bd 33 ec 97 bd 96 dc 09 bd
       -0.064521626 -0.03201723 -0.07418098 -0.033657633
000130 27 70 82 3d 53 47 46 3d 04 23 10 bd 51 21 83 3d
       0.063690476 0.048407864 -0.035189644 0.06402839
000140 1e bd c8 bd 38 25 d8 bd 9c bf b9 3d d5 97 7c bd
       -0.09801696 -0.10553974 0.0906975 -0.061668236
000150 13 19 7e bd 0b 03 b3 bd 6c c9 32 3d f0 12 8e bc
       -0.06203563 -0.08740815 0.043649122 -0.017343014
000160 ea bd 4b 3d 6f 58 d2 bd 60 8c 5e be 73 4c 58 ba
       0.049741663 -0.102707736 -0.21733236 -0.0008251138
000170 1a 30 04 bd 01 c1 f1 bc af 03 f1 3d 44 8d b7 3d
       -0.032272436 -0.029510977 0.11768281 0.08962491
000180 61 1b ad bd 14 57 fe 3c b3 a8 42 bd 39 ed 85 bd
       -0.08452488 0.031047381 -0.047524165 -0.06539387
000190 d1 40 0b be d5 14 e8 3d 06 9b 2e bd ea 98 d3 bd
       -0.13598944 0.113320984 -0.04262831 -0.103319004
0001a0 f4 8b a1 bd 10 eb 28 3d 39 b6 18 be c1 a2 a2 3d
       -0.07888022 0.041239798 -0.14913262 0.07941199
0001b0 3a 1a af bc 1b 17 92 3b 41 c9 4f bd 47 2a e0 3d
       -0.02137481 0.004458321 -0.05072904 0.10945564
0001c0 d1 ba 56 bc 92 c7 01 be cb b6 c1 3d 20 18 16 3d
       -0.013106064 -0.12673786 0.09458693 0.0366441
0001d0 73 26 96 bc 54 8c ad 3d 68 63 eb bd 7b c4 b6 3d
       -0.01832888 0.08474031 -0.114935696 0.089241944
0001e0 0f 15 1c be 4d ef 87 bc 79 17 01 3e 58 90 09 3d
       -0.15242408 -0.0165936 0.1260661 0.033584923
0001f0 58 ad 73 3d c5 21 ab bd 9d 7d e0 bd ff 58 70 3d
       0.059491485 -0.083560504 -0.10961459 0.058678623
000200 72 33 01 3d 61 48 d3 bd 8c 66 74 3d 46 59 56 3d
       0.031543203 -0.103165396 0.05966811 0.05233123
000210 80 5e 54 bc 1a 39 9a bd 12 c3 7a 3d 02 52 86 3c
       -0.012961984 -0.075304225 0.06122119 0.016396526
000220 c6 68 f1 bc be 07 23 3d 32 0d a1 bd 1d 5a 2a be
       -0.029468905 0.039802305 -0.07863845 -0.16635938
000230 68 47 86 bd b5 e1 37 3d 2a c5 b3 bd cc 49 d1 bc
       -0.065565884 0.044892985 -0.087778404 -0.025547884
000240 64 d8 59 3d a8 46 62 bd bd d1 a9 3d 24 99 4f 3d
       0.05318488 -0.055243164 0.082919575 0.050683156
000250 20 d9 f9 3c f0 4f 8e bd d1 6c e1 bb 77 b6 92 3c
       0.030499041 -0.069488406 -0.006879427 0.017909272
000260 83 45 0d be 8f e3 b7 3b 58 56 aa bd 4c e8 ac bd
       -0.13796048 0.005611844 -0.0831725 -0.084427446
000270 07 02 8d 3d e8 a7 c5 bd 92 cf 91 3d e3 44 74 bd
       0.06885152 -0.09651166 0.07119669 -0.059636008
000280 cc e4 30 3d 3b 23 c6 bd a1 14 4d bd 0a fb f0 bd
       0.043186948 -0.096746884 -0.0500685 -0.11766632
000290 63 19 aa bc ec fa 59 bd d0 13 d6 3d 4a 8e 48 bd
       -0.020764058 -0.053217813 0.10452998 -0.048963822
0002a0 60 b7 f7 3c b2 da ae bd 33 ba f6 bd 1c 31 e9 bd
       0.030238807 -0.085378066 -0.120472334 -0.1138632
0002b0 ca dd 0b bd 2d dc 62 3d a9 6a 0b b9 ad e1 15 be
       -0.03414706 0.055385757 -0.00013295807 -0.1463687
0002c0 36 75 d4 3c 5b cd 84 bc 85 d0 b1 bd 91 0c 8d 3d
       0.025934797 -0.016211202 -0.0868235 0.068871625
0002d0 6d 1e ff bc d2 cc 1a be 54 48 42 3d 32 11 5e bd
       -0.031142438 -0.15117195 0.04743226 -0.054215617
0002e0 94 dc 6b bd 3c f7 a9 bd 44 a3 6b 3d 58 ff 8d bd
       -0.057583407 -0.08299109 0.05752875 -0.069334686
0002f0 cb e4 7e bd 2b 1d 15 3d 0b c7 af bd 1c a5 a0 bc
       -0.062229913 0.03640477 -0.08582886 -0.01960998
000300 a2 dd 33 bd 73 d6 8e bc 64 cd 38 3c b4 7d f0 3a
       -0.043912537 -0.017436242 0.011279438 0.0018348009
000310 28 5a a2 bc 8a 06 39 be d5 3a 05 3d 71 ca 36 bd
       -0.01981838 -0.180689 0.03252681 -0.044626657
000320 83 68 c5 bc 50 9c 2e 3d 67 b6 e7 3d 63 2e 2a 3d
       -0.024097687 0.04262954 0.11314087 0.041548144
000330 dc 72 a4 bd 49 ca a2 bd c2 e4 1b bd ee 7c ef bd
       -0.0802972 -0.07948739 -0.038059957 -0.1169375
000340 42 6d ad 3d 1d 45 c1 bd 78 cf f6 bd dd 6d b3 bd
       0.08468105 -0.094370104 -0.1205129 -0.08761189
000350 c9 9d bd bb 64 ec b1 bb 11 52 0c be ef 15 83 3c
       -0.0057866317 -0.0054297913 -0.13703181 0.01600167
000360 08 97 bd bd 3f 99 b1 bd d1 f4 fb bd 1c a5 57 3d
       -0.092573225 -0.086718075 -0.123025544 0.052647695
000370 8b 63 53 be b9 f2 05 be 4a 7f e3 3d 45 f1 26 be
       -0.20643441 -0.13080873 0.11108263 -0.16302975
000380 1f 2a e0 3d 34 f4 b3 bd d0 bc 62 be 2d 86 94 bd
       0.10945534 -0.087868124 -0.22142339 -0.072521545
000390 89 ec f3 bd 7a 11 5a bd f7 57 8c bd 03 91 6c bd
       -0.1191035 -0.053239323 -0.068527155 -0.05775548
0003a0 81 a1 d6 bd f5 86 16 be e9 d0 b0 bd 76 a2 9b bd
       -0.10480023 -0.1469992 -0.086335965 -0.07599346
0003b0 0a e5 5d 3d a3 26 d9 3c 06 54 15 bd 6c 58 87 bd
       0.054173507 0.026507681 -0.036457084 -0.06608662
0003c0 74 fa 85 3d ab c5 8c be 9e df fb bd 31 f8 d2 3c
       0.06541911 -0.2749456 -0.12298511 0.025753113
0003d0 64 aa 33 3e 3f 2d b8 3c 73 1e 29 be f3 58 39 be
       0.17545468 0.022482513 -0.16515522 -0.18100338
0003e0 ea fd 39 be 0a 10 d9 bd 1b c0 ff 3d c6 f1 c0 3a
       -0.18163267 -0.10598762 0.12487813 0.0014720492
0003f0 3f 98 6d bd 80 fb 17 be cc e3 46 be 92 2a 03 3d
       -0.05800652 -0.14842033 -0.19422835 0.03202302

MLP_layers.0.bias f4 [32]
000000 43 d0 fe bd 28 b0 20 be 96 de 9e bc 65 a0 9a 3e
       -0.124420665 -0.15692198 -0.019393247 0.30200496
000010 bd 76 2c be 59 70 19 bd d9 a9 56 be a0 ef ac bd
       -0.1684217 -0.03746066 -0.20963229 -0.08444142
000020 cd 20 06 be 52 17 d5 bd 88 01 49 3e 35 21 e2 bd
       -0.1309845 -0.104048386 0.1962949 -0.1104149
000030 10 7f 19 bd f2 63 1e be 95 fc aa 3e 0f 23 af 3e
       -0.037474692 -0.15467814 0.3339583 0.34206435
000040 78 5c dd 3e ab df fb bd 3f d8 ac 3e 2a ec 08 be
       0.4323461 -0.12298521 0.33758733 -0.1337134
000050 e5 61 81 3e 9c 46 45 3e 5f 49 cc bd 27 46 57 3e
       0.2527 0.19265217 -0.09974932 0.21022855
000060 bc b0 b7 3e 0e 1d 21 be 24 8b 98 bd 82 42 f7 be
       0.35877025 -0.1573374 -0.07448414 -0.4829293
000070 c9 31 08 3e de 39 40 be d3 8c 27 be ee b9 60 3e
       0.13300242 -0.18772075 -0.16362314 0.21945927

MLP_layers.1.weight f4 [10, 32]
000000 5d 9d c5 3d 70 ba f7 3d 92 61 18 3e a4 a7 ad be
       0.09649155 0.12096107 0.1488097 -0.33916962
000010 c6 d4 e5 bd 96 32 07 3d 84 f7 f5 bd b5 94 14 be
       -0.11222224 0.033007227 -0.120101005 -0.14509852
000020 62 34 af be 9d f7 b5 3c 6f 44 05 3d 81 f7 b5 bb
       -0.34219652 0.022212798 0.032535966 -0.0055531864
000030 09 28 3e 3d 97 31 5a 3e e5 c8 ee 3c bc 17 94 be
       0.0464249 0.2130798 0.029148528 -0.28924358
000040 b4 93 27 be 82 8e 94 3d 12 fe 52 3d 74 43 44 bc
       -0.16364938 0.07253744 0.05151183 -0.011978973
000050 db d3 7a 3d 3c 38 43 bc 46 bf 07 be 62 8c 72 be
       0.061237197 -0.011915263 -0.13256559 -0.23686364
000060 5e 95 1d bf 01 91 dd 3d 00 c6 62 be e2 0a 85 3e
       -0.6155604 0.10818673 -0.22145844 0.25984865
000070 b3 40 55 bd c8 55 07 3e a3 6c 8c 3d 5a 84 00 be
       -0.052063655 0.13216317 0.06856658 -0.12550488
000080 d0 d8 2b be 4b 2e d0 3c ef ac 09 be 45 76 f6 3e
       -0.16781926 0.0254127 -0.13444875 0.48137107
000090 3c 6d 07 be 93 fd 08 3e 35 88 2b 3e f7 35 ba 3c
       -0.13225263 0.13377981 0.16751178 0.02273081
0000a0 ae 30 8f be 90 0a 4c 3d 37 7a 10 3e af 93 04 3d
       -0.27966827 0.04981476 0.14109121 0.032367405
0000b0 03 9a 40 bd 51 15 35 bf 75 a1 80 3e 43 ae d7 3e
       -0.047021877 -0.7073565 0.25123182 0.4212514
0000c0 3c f4 dc 3e c4 d5 30 bd 51 45 de 3e 29 9f 5b bc
       0.43155086 -0.043172613 0.4341226 -0.013404646
0000d0 1d 88 d2 3e 63 63 ab bb 5e 73 34 3c 96 78 26 3e
       0.4111947 -0.0052303537 0.011013834 0.16256937
0000e0 03 1d 15 3f 7f ee fb bd 64 3b e6 be 43 97 12 bf
       0.58247393 -0.12301349 -0.44967186 -0.5726206
0000f0 6d e2 80 3e 1e 73 4b 3e 4f a7 f9 bd af 65 4a 3e
       0.2517275 0.19868132 -0.12190115 0.19765352
000100 63 a0 b9 bd 11 5f 3f 3d 38 b6 e3 3d a9 27 c0 bd
       -0.090637945 0.04672152 0.1111874 -0.093825646
000110 3c 6e c4 bd 23 d8 03 be 26 9d bc be b7 bf 35 3d
       -0.09591338 -0.12875418 -0.36838645 0.044372287
000120 04 61 45 be 09 19 da bd 80 1c c1 bd 34 66 f2 3c
       -0.1927529 -0.10649306 -0.09429264 0.02958975
000130 ca b2 a9 3c a0 aa f1 3d bd df 2d be 72 1b 4d be
       0.020715136 0.11800122 -0.1697988 -0.20030001
000140 c0 fb 37 be f6 1e c7 bd f7 6e e4 bd 1c 2b 09 bd
       -0.17967129 -0.09722702 -0.11153977 -0.033488378
000150 29 f6 95 be 2a 30 0b 3f 7b 47 2f 3e 0e 97 a9 bd
       -0.29289368 0.5437037 0.17117111 -0.082807645
000160 1a 96 00 be ff 7f ea bd 43 3c 18 3e 6a 97 2c be
       -0.12557259 -0.114501946 0.14866738 -0.16854635
000170 1b e9 fd bd 5f 5a af bd 19 01 32 bc e0 5e 27 bd
       -0.12397977 -0.08562159 -0.0108645195 -0.040861964
000180 4e b8 88 bd e6 2e c8 3c 0b 23 95 bd 14 f3 70 bd
       -0.06675778 0.024436425 -0.072820745 -0.058825567
000190 f2 fd 86 3d 66 66 04 3e 9c f0 c5 be 23 96 9b 3d
       0.06591405 0.12929687 -0.38660133 0.07596996
0001a0 d1 88 2c bd 7d eb 4f bd 0e 56 50 3d e4 93 83 3d
       -0.042122666 -0.05076169 0.05086332 0.06424692
0001b0 f0 b3 e9 3d d0 b9 5f 3e 74 e7 11 bd e5 15 1a 3e
       0.114112735 0.21848226 -0.03562112 0.15047415
0001c0 ce ec 27 bd 5d 22 ff bd 32 6e 52 bd 06 57 bd bc
       -0.04099732 -0.12457726 -0.05137462 -0.023112785
0001d0 6c 56 21 3e 2e 59 bb be a3 80 ef bd 7c 70 ab 3b
       0.15755624 -0.36591476 -0.116944574 0.005231915
0001e0 86 68 c2 3e 9d 51 e0 bc 0c f0 0a 3e 65 e7 a0 be
       0.3797037 -0.027382666 0.13568133 -0.3142654
0001f0 41 8f d6 bc 98 2c 84 3d 81 78 c9 bc 5e c2 3c bd
       -0.026191356 0.06453818 -0.024593594 -0.0460838
000200 c6 88 00 3c c7 a7 c7 3d 91 14 02 bd 03 3c aa 3d
       0.007845109 0.09748798 -0.031757895 0.083122276
000210 0e e9 47 3d f9 38 8b b9 65 e7 bf 3e 72 2e 1b 3d
       0.048806243 -0.00026554594 0.37481228 0.03788609
000220 14 6c 5b 3e 42 46 62 3d c1 3d 6d 3b ce ee 61 3d
       0.21427947 0.055242784 0.0036200138 0.055159383
000230 8e 68 25 be cf 1c 38 bf 63 56 1d 3d 4b 6a c2 bb
       -0.16153166 -0.7191896 0.038412463 -0.0059330813
000240 51 f5 0c 3e 05 ba a8 bd ca f8 53 3d 45 13 3a be
       0.13765456 -0.082386054 0.051750936 -0.18171413
000250 77 2e ae 3d 17 46 95 3c 0d 50 8f 3d d6 1d 8f be
       0.08504956 0.018221898 0.0699769 -0.2795245
000260 9d 54 60 be ba c5 13 be ad 42 a4 3e 8c a2 b8 bd
       -0.21907277 -0.14430895 0.3208212 -0.09015378
000270 2a a0 a9 bc ad 7d 89 3d 22 11 9e bd 13 09 c0 3c
       -0.020706255 0.06713424 -0.077181116 0.023441827
000280 25 36 53 be 86 59 5d 3c 30 02 75 bd 4d f6 9c 3c
       -0.20626123 0.013510114 -0.05981654 0.019160414
000290 52 3c 67 3d 81 da 88 3d 7e a0 8a be 18 07 e9 3d
       0.05645401 0.06682301 -0.2707557 0.11378306
0002a0 2d fd 11 3e 36 df e6 bc 64 70 09 3e 71 de e7 bc
       0.14256735 -0.028182607 0.1342178 -0.02830431
0002b0 e9 f9 b6 3c ba e4 1e bd a4 3a 70 bd be 49 91 3e
       0.022335963 -0.03879235 -0.058649674 0.28376573
0002c0 e3 8f 5a 3e 5b 0f 08 be 57 66 82 3e d5 b1 9d bc
       0.21343951 -0.13287108 0.25468704 -0.019249836
0002d0 e6 f7 6c bb 37 9a e6 be e2 a0 05 3e 62 19 d5 3c
       -0.0036158501 -0.45039532 0.13049653 0.02601308
0002e0 98 92 89 3e d4 1d 25 bd 24 20 06 be 30 b5 a1 3e
       0.26869655 -0.04031165 -0.13098198 0.31583548
0002f0 79 ab 34 3e b1 f2 bc 3d 78 fd 4f 3d 14 8d 10 bd
       0.17643537 0.09225977 0.050778836 -0.035290793
000300 1c 08 a1 bc 04 74 ac 3d d5 9e ad bd 2d 09 2e be
       -0.019657187 0.08420566 -0.084775604 -0.16995688
000310 81 c3 4d be a5 b8 fb bc fe 73 7a 3e c2 70 1f 3e
       -0.2009411 -0.030727694 0.2445831 0.15570357
000320 de 09 3a bf cb 32 12 bd c9 fc 84 bc 23 a0 7d bc
       -0.72671306 -0.03569297 -0.016233819 -0.015480074
000330 26 d6 fc bd ae 82 78 be 1a 1f 6b be 1b 76 e5 be
       -0.12345533 -0.242686 -0.22961083 -0.4481667
000340 df 99 98 be 32 9b 22 bc 62 82 d0 bd 84 b8 b2 bd
       -0.29804894 -0.009924697 -0.101811185 -0.087266
000350 f5 3a 3d be 93 bf 83 be 2c b8 1d 3d 0f 79 35 be
       -0.18479522 -0.25732097 0.038505718 -0.17721961
000360 79 9a 66 bd ef 4c 0d be fc 78 b9 3d 14 25 eb 3e
       -0.05629966 -0.13798879 0.09056279 0.45926726
000370 15 46 57 bd 3f d8 38 bd bd a8 ad bc ad 2e a3 3d
       -0.05255707 -0.045128103 -0.021198625 0.07967887
000380 bd 60 2a 39 fe 8e 27 3d cf 67 19 3d 41 e1 3d 3e
       0.00016248501 0.040907852 0.037452515 0.18542959
000390 57 f8 f4 bd cb 3e 3f be b1 ac cc be 86 bc ce 3d
       -0.119614296 -0.18676297 -0.39975503 0.10094552
0003a0 56 f9 11 3f 7b 86 af bd 78 1b cf bd 93 20 b2 3b
       0.5702108 -0.08570572 -0.10112661 0.005436012
0003b0 92 9c 26 3d a3 05 51 be aa e4 00 3e 16 d9 c9 bd
       0.04067666 -0.20412306 0.12587228 -0.09855859
0003c0 87 7d 4d 3e 77 46 25 bd be 35 16 3d b6 fc db 3d
       0.20067416 -0.040350404 0.036672346 0.1074156
0003d0 30 7c f4 bb 4f 77 9c 3e eb 26 eb 3d f4 cd 00 be
       -0.0074610934 0.30559775 0.114820324 -0.12578565
0003e0 9c 3b 1d be 08 41 fc bd f4 ad 85 be de 7f a9 be
       -0.1535477 -0.12317091 -0.26109278 -0.33105367
0003f0 33 cf 7a 3d 02 fe 0d 3e cd 68 8a 3d c5 33 38 bc
       0.061232757 0.13866428 0.067582704 -0.011242812

MLP_layers.1.bias f4 [10]
000000 eb 02 96 40 08 1c 25 40 3f 5d 92 3e 0c 74 be be
       4.687856 2.579836 0.28586766 -0.37197912
000010 16 5a f7 bf e3 55 2a c0 73 c0 07 bf e4 47 61 3f
       -1.9324367 -2.661492 -0.5302803 0.8800032
000020 7f 63 f1 bf a3 f6 98 3f
       -1.8858489 1.1950268
