saved/201910181553_best.pt (torch_old, 225989 bytes, 22 tensors)

GAT_layers.0.GAT_heads.0.f.weight f4 [32, 6]
-0.3353694 -0.12857977 0.3738081 -0.17030677 0.192296 -0.07714225 -0.39428744 -0.06531615
-1.2715951 -0.2235651 -0.03840316 -1.421573 0.16942774 0.093155 0.03521057 -0.09508145
-0.047530685 0.001732915 -0.12565736 -0.016806338 0.43591535 -0.045199838 0.5136738 0.40496045
-0.010044211 0.832998 -0.78846234 -0.011720499 0.73263156 -0.6807444 0.15066706 -3.1719403
-3.0386314 -0.06347648 -3.9045365 -2.0384502 -1.063238 1.1826618 -0.4095307 -0.31855413
0.95125985 0.005525162 -0.5141288 0.16303511 0.16233751 -0.0070287394 0.88377917 -1.0192974
-0.046393972 -0.049625378 -0.4694054 -0.033430945 -0.03254576 -0.33176047 -0.074045725 -0.14975747
0.60013205 0.014649956 0.25754157 0.34616998 -0.09573142 -0.009148729 -0.39019105 0.055130273
0.0023893672 -0.4386101 0.07435181 -1.2793137 0.2840509 -2.1559696 -0.8321652 0.63235563
-0.013379741 0.1659997 0.18699454 -0.039878886 0.38962102 -0.30717412 -0.033558242 0.11644974
1.2300291 -0.0011210593 -0.0869234 1.0051454 0.042308513 0.04964982 0.7773601 0.04846015
-0.1700905 1.0790224 -1.0009903 0.046909507 -0.25687763 -2.3170877 -0.06440297 -0.46215218
0.0492311 0.8831577 -2.8099787 -0.06918522 0.8145859 -2.209839 -0.499992 -0.059604898
0.34476292 0.113573834 0.23911726 -0.5812009 0.032871053 0.69279814 -2.962847 0.052981887
1.0577077 -2.3334901 -0.0054979334 -0.5822802 -0.28616774 0.006473831 -0.94392115 -0.7004746
-4.806379 -0.24193518 0.49686024 -0.06973413 0.3691618 -0.16054267 -0.037206892 0.24905442
0.026990362 -0.21957353 -0.3345637 0.21053562 -0.0016927029 -0.09489882 0.16632532 -0.059798077
0.089391194 -0.21432531 0.09950108 -2.7351556 -5.366374 -0.06076264 -3.0291271 -3.9000335
-0.028922772 0.5680775 0.65050405 -1.2922893 0.115633175 0.33211613 -1.442165 -1.1421573
-0.17924796 0.04924857 -1.2278403 -0.6321441 0.049705476 -0.24706696 -0.19605063 -0.18553397
-0.3381921 -0.05929645 -0.022652028 1.1945319 -1.0700008 0.009899432 1.456685 -0.9054807
-0.0018552167 0.19171587 -0.15509284 -0.12532537 -0.30330607 0.162451 -2.9782338 -1.0256525
0.553812 0.06796542 -0.628674 0.038797684 -0.068285905 -0.9756062 0.22428952 -0.009772229
-1.0747505 -0.49920386 -0.07476751 -0.9412744 0.7113537 0.06206819 -0.70757645 0.527621
00000000: 8ab5 abbe 6aaa 03be c663 bf3e e664 2ebe
00000010: 3ee9 443e c2fc 9dbd 0be0 c9be 79c4 85bd
00000020: a1c3 a2bf 40ee 64be a24c 1dbd 1bf6 b5bf
00000030: 777e 2d3e 0cc8 be3d f538 103d 10ba c2bd
00000040: 89af 42bd fb22 e33a 53ac 00be 72ad 89bc
00000050: 4c30 df3e 7723 39bd 2080 033f fa56 cf3e
00000060: 7990 24bc 5b3f 553f abd8 49bf 5607 40bc
00000070: be8d 3b3f 4445 2ebf 7748 1a3e 1201 4bc0
00000080: f078 42c0 f5ff 81bd ede3 79c0 f875 02c0
00000090: 2f18 88bf 7661 973f 02ae d1be 8719 a3be
000000a0: c485 733f 6b0c b53b f29d 03bf adf2 263e
000000b0: ce3b 263e 5751 e6bb 5a3f 623f 5678 82bf
000000c0: 9b07 3ebd fb43 4bbd e855 f0be e3ee 08bd
000000d0: b44e 05bd 82dc a9be 49a5 97bd 065a 19be
000000e0: 41a2 193f 5e06 703c 7ddc 833e 313d b13e
000000f0: d60e c4bd 8de4 15bc 1fc7 c7be 48d0 613d
00000100: ee96 1c3b 8191 e0be c345 983d 8dc0 a3bf
00000110: 1f6f 913e 68fb 09c0 c708 55bf 0fe2 213f
00000120: b436 5bbc d3fb 293e 7f7b 3f3e 0b58 23bd
00000130: 687c c73e ed45 9dbe 5e74 09bd 347d ee3d
00000140: 9871 9d3f 82f0 92ba e504 b2bd 9ba8 803f
00000150: b14b 2d3d 9c5d 4b3d 1201 473f 267e 463d
00000160: 342c 2ebe 681d 8a3f 7320 80bf 2f24 403d
00000170: 7785 83be 2a4b 14c0 b4e5 83bd 369f ecbe
00000180: 8da6 493d 9f16 623f b1d6 33c0 fbb0 8dbd
00000190: b488 503f 016e 0dc0 f4fe ffbe 4424 74bd
000001a0: c484 b03e 6699 e83d 28db 743e 95c9 14bf
000001b0: cca3 063d 385b 313f 499f 3dc0 8903 593d
000001c0: f762 873f e757 15c0 0228 b4bb 5110 15bf
000001d0: 9484 92be 6e22 d43b d1a4 71bf 4e52 33bf
000001e0: dbcd 99c0 dbbd 77be 7764 fe3e c4d0 8ebd
000001f0: c702 bd3e 4c65 24be 4166 18bd 1f08 7f3e
00000200: e41a dd3c e2d7 60be ef4b abbe a696 573e
00000210: afdd ddba 505a c2bd 2f51 2a3e d4ee 74bd
00000220: bb12 b73d 1878 5bbe 39c7 cb3d ca0c 2fc0
00000230: 56b9 abc0 3fe2 78bd 38dd 41c0 269a 79c0
00000240: 73ef ecbc 876d 113f 6f87 263f bc69 a5bf
00000250: 16d1 ec3d 200b aa3e dd98 b8bf 3632 92bf
00000260: c78c 37be deb8 493d df29 9dbf 32d4 21bf
00000270: f897 4b3d 1fff 7cbe 7fc1 48be 9efc 3dbe
00000280: 8427 adbe d6e0 72bd bf90 b9bc 6ce6 983f
00000290: c9f5 88bf 3a31 223c a774 ba3f 95cd 67bf
000002a0: be2a f3ba 2a51 443e a8d0 1ebe 4b55 00be
000002b0: ef4a 9bbe 8e59 263e 629b 3ec0 9548 83bf
000002c0: a0c6 0d3f 7431 8b3d c7f0 20bf 52ea 1e3d
000002d0: 7bd9 8bbd 54c1 79bf 27ac 653e b31b 20bc
000002e0: 6d91 89bf a697 ffbe b51f 99bd 5cf7 70bf
000002f0: 471b 363f 373b 7e3d bb23 35bf 2b12 073f

GAT_layers.0.GAT_heads.0.f.bias f4 [32]
-0.36855188 0.76086724 -0.10704001 -0.75683635 -0.45648736 -3.3386261 -0.33553922 -0.40910012
0.7384557 -0.19604382 0.7566778 -0.16181462 -0.116232276 -0.104715556 -1.6633499 0.67534965
-0.8973722 -0.045115262 0.26834422 1.4348319 0.16960134 -0.31445158 -0.0286282 -2.9154644
-0.4536522 0.6976193 0.19180663 0.10182355 -0.051892232 0.38294002 0.7316107 0.420486
00000000: d5b2 bcbe 32c8 423f cb37 dbbd 07c0 41bf
00000010: b6b8 e9be 0dac 55c0 cccb abbe 9275 d1be
00000020: 6f0b 3d3f b6bf 48be a3b5 413f bbb2 25be
00000030: 300b eebd 1c75 d6bd a6e8 d4bf b7e3 2c3f
00000040: 2fba 65bf c8ca 38bd 6a64 893e 92a8 b73f
00000050: f9ab 2d3e ccff a0be b085 eabc f896 3ac0
00000060: 1a45 e8be 2e97 323f f568 443e de88 d03d
00000070: f38c 54bd b710 c43e d74a 3b3f f149 d73e

GAT_layers.0.GAT_heads.0.w.weight f4 [1, 6]
-0.006833022 -3.6913166 1.7334058 -0.0005751719 2.8057873 -1.3509407
00000000: 8be7 dfbb 883e 6cc0 3ee0 dd3f 22c7 16ba
00000010: 0592 3340 a0eb acbf

GAT_layers.0.GAT_heads.1.f.weight f4 [32, 6]
-0.3674866 -0.058104396 0.22303656 -0.09939933 0.36393526 0.36309496 -0.1938404 0.35543248
0.14313307 0.07866523 -0.3332464 0.11372909 -0.26717767 -0.26814452 -0.2713529 0.22264561
-0.19558357 0.0963351 0.11841621 -0.17493203 -0.16651954 -0.1445247 0.23669478 -0.0662896
-0.13134122 0.23974356 -0.18079744 -0.24949671 0.17505005 0.022785902 0.21199307 1.1858714
-0.5448399 -0.05028006 0.43895373 -0.47009078 0.03543359 0.057231575 0.2043964 -0.13095757
0.31004253 0.15248898 0.026165279 0.83240306 -0.47593805 0.21969305 0.46652573 -0.75992817
-0.23958798 -0.2677245 0.31874183 -0.25092655 -0.32294807 -0.19219048 -0.22525862 0.258817
0.29460242 -0.16104597 0.23047724 0.08191103 0.058447544 -0.034896083 -0.24425444 -0.070429474
-0.19283211 -0.12570071 -0.17481498 0.23045674 0.12501708 -0.26919347 0.14014462 0.008862346
-0.3647163 0.33440837 -0.023765117 -0.024915785 -0.030449718 0.087791145 0.28721118 0.26690754
-0.10064487 -0.32451963 0.05307557 0.13039646 -0.35050955 -0.28168994 0.22944137 -0.16365561
0.354439 0.21213946 0.07908107 -0.34020463 0.5551074 -0.08956317 -0.40973318 0.31567097
-0.3112487 0.10855761 0.39004573 -0.0350357 0.10644713 0.23482105 -0.030236661 -0.28998727
-0.18183303 -0.27909058 -0.11668241 -0.19433655 0.33083704 0.17861038 0.14013743 -0.36722884
-0.20390776 -0.31931517 -0.13016471 0.339969 0.38773617 -0.3532572 0.034213275 0.36980423
0.031712197 0.88937044 -0.06288802 0.5645542 0.2394881 -0.0915616 0.18948275 0.1706674
-0.41691798 -0.21538289 0.12353649 -0.29225174 -0.01390633 -0.33529854 0.1832647 -0.05246827
-0.3598053 -0.1794019 0.27718243 0.44777018 -0.68538326 0.20466098 0.56443834 -0.4610937
0.10660734 0.5963888 -0.53702503 0.51909506 0.8104343 -0.58102524 -0.15883294 0.30953988
0.14807186 0.077161014 0.040751845 -0.39007977 -0.08817837 -0.06428233 -0.076949954 -0.016359478
0.26311365 0.031856537 0.37617993 0.51682234 -0.4989268 0.3131979 0.73597115 -0.6769585
-0.2008583 -0.18956658 0.07268992 -0.15483229 -0.32716465 0.3318477 -0.122737914 -0.30385193
-0.27334812 -0.16950203 0.24435207 0.27424768 0.12810116 0.2926148 0.37626502 -0.15312912
-0.37790367 0.42411742 -0.17438568 -0.32486898 0.13361487 -0.056506813 0.059466302 0.33530048
00000000: 3427 bcbe e0fe 6dbd b263 643e e091 cbbd
00000010: b955 ba3e 95e7 b93e 197e 46be 3ffb b53e
00000020: 7a91 123e 3c1b a13d 469f aabe ccea e83d
00000030: 83cb 88be 3d4a 89be c4ee 8abe 36fd 633e
00000040: 0f47 48be 564b c53d 3384 f23d 6221 33be
00000050: 1984 2abe 48fe 13be 1e60 723e d8c2 87bd
00000060: 507e 06be 567f 753e f722 39be 117c 7fbe
00000070: 5240 333e 80a9 ba3c b614 593e a2ca 973f
00000080: a17a 0bbf 77f2 4dbd 8bbe e03e bdaf f0be
00000090: d022 113d a86b 6a3d 4a4d 513e be19 06be
000000a0: e5bd 9e3e 1226 1c3e 9158 d63c 5e18 553f
000000b0: 27ae f3be 37f7 603e 76dc ee3e a78a 42bf
000000c0: 8d56 75be 3013 89be 2132 a33e 7279 80be
000000d0: 7359 a5be 95cd 44be 32aa 66be a983 843e
000000e0: 21d6 963e 3ce9 24be 3a02 6c3e f8c0 a73d
000000f0: b166 6f3d 32ef 0ebd d61d 7abe 543d 90bd
00000100: c875 45be b0b7 00be b302 33be dafc 6b3e
00000110: 7a04 003e bad3 89be 1282 0f3e 6033 113c
00000120: 18bc babe 9337 ab3e 10af c2bc 301c ccbc
00000130: b071 f9bc d8cb b33d 580d 933e 1ba8 883e
00000140: e61e cebd 7027 a6be c565 593d a686 053e
00000150: fd75 b3be aa39 90be aef2 6a3e 5695 27be
00000160: 0779 b53e 163b 593e 42f5 a13d 4d2f aebe
00000170: 851b 0e3f e56c b7bd 8cc8 d1be a09f a13e
00000180: fd5b 9fbe 7453 de3d 13b4 c73e 9881 0fbd
00000190: f400 da3d ee74 703e e0b2 f7bc 3679 94be
000001a0: 7032 3abe f6e4 8ebe 30f7 eebd 2900 47be
000001b0: 7963 a93e a4e5 363e 3080 0f3e 6b05 bcbe
000001c0: 32cd 50be 477d a3be e649 05be 6b10 ae3e
000001d0: 5b85 c63e 21de b4be 3823 0c3d fb56 bd3e
000001e0: a6e4 013d c8ad 633f 6fcb 80bd a086 103f
000001f0: 5e3c 753e a684 bbbd c407 423e 6fc3 2e3e
00000200: 4676 d5be 558d 5cbe b300 fd3d 05a2 95be
00000210: 60d7 63bc 40ac abbe bea9 3b3e f8e8 56bd
00000220: 6638 b8be 22b5 37be dbea 8d3e 2242 e53e
00000230: 4775 2fbf a692 513e 087f 103f 7914 ecbe
00000240: f354 da3d f0ac 183f 797a 09bf 6ae3 043f
00000250: 9f78 4f3f 12be 14bf 1aa5 22be 037c 9e3e
00000260: 26a0 173e 9806 9e3d 68eb 263d 89b8 c7be
00000270: dc96 b4bd 74a6 83bd f097 9dbd 5004 86bc
00000280: d5b6 863e 007c 023d a89a c03e 784e 043f
00000290: 5573 ffbe 7a5b a03e 9b68 3c3f 274d 2dbf
000002a0: ccad 4dbe be1d 42be 74de 943d 5b8c 1ebe
000002b0: 2082 a7be f1e7 a93e 045e fbbd 7b92 9bbe
000002c0: 49f4 8bbe f191 2dbe 6e37 7a3e 316a 8c3e
000002d0: f32c 033e 9bd1 953e cfa5 c03e e1cd 1cbe
000002e0: 977c c1be eb25 d93e 2992 32be 3a55 a6be
000002f0: 56d2 083e b073 67bd f092 733d 81ac ab3e

GAT_layers.0.GAT_heads.1.f.bias f4 [32]
-0.19702199 -0.060592055 0.2830863 0.09812164 -0.12557486 -0.3536571 0.32814252 0.49449757
-0.21623138 -0.036139518 -0.23197223 -0.40238112 -0.1703203 0.026221188 0.069503665 0.09204256
0.30509567 0.19048744 0.2953106 0.19103563 0.45528638 -0.090711504 0.044432968 0.4223193
0.16287693 -0.26948538 -0.3016351 -0.14004606 -0.3382462 0.024686784 0.010465023 0.04876083
00000000: 22c0 49be 602f 78bd b0f0 903e 00f4 c83d
00000010: b296 00be 8b12 b5be 4c02 a83e c92e fd3e
00000020: c26b 5dbe 0807 14bd 218a 6dbe e604 cebe
00000030: 7268 2ebe d1cd d63c f057 8e3d cf80 bc3d
00000040: 8035 9c3e 240f 433e f332 973e d89e 433e
00000050: 4c1b e93e f4c6 b9bd 58ff 353d 3c3a d83e
00000060: 36c9 263e fdf9 89be ea6f 9abe 3c68 0fbe
00000070: 9b2e adbe f03b ca3c 7d75 2b3c 70b9 473d

GAT_layers.0.GAT_heads.1.w.weight f4 [1, 6]
0.34524706 -0.016135564 1.2275956 1.5738093 -0.16132398 0.061355636
00000000: 39c4 b03e bb2e 84bc da21 9d3f 9572 c93f
00000010: 1d32 25be 0c50 7b3d

GAT_layers.1.GAT_heads.0.f.weight f4 [64, 128]
0.1028359 -0.111381575 -2.2234209 1.6061052 -2.9918656 -2.4967837 0.40796334 -1.4952086
-4.205807 0.1694714 -4.1012454 1.1667624 -1.9214915 0.43238592 -1.4601068 -1.1068029
-2.2401977 -2.7824025 -5.0645638 -0.23193912 0.36727023 0.15853684 -1.0177423 -2.8454902
0.59665203 -1.7912015 0.76360846 0.5147323 -0.05407665 0.37508672 -1.8686712 -0.022147382
-0.08162928 0.15842165 -0.03948827 -0.117203474 0.14772291 -0.011293168 -0.07323561 0.06402353
0.0420378 0.14464395 0.06743527 -0.15013768 0.06554791 -0.052298743 0.12409367 0.14555833
-0.1581323 0.04987064 0.079940215 0.112884805 0.093460225 0.14732158 0.072359726 0.07382267
0.060059246 0.1255431 -0.15956889 -0.034989875 0.03266336 0.07056089 -0.072274946 -0.11640778
0.03414927 0.31890568 0.092674375 1.3803225 -1.8849483 0.4187143 0.11300623 -0.35070682
-1.418078 0.13089263 -1.260602 0.6331292 -0.60583436 0.31605715 0.5508515 -0.42508736
0.046723805 0.30999956 -0.33586073 -0.035737228 -0.060375527 0.06441318 0.13335353 0.076449126
0.3692291 0.17504393 0.9760445 0.20664127 -0.16047308 0.27042502 -0.16518927 0.32912692
-0.15524624 0.052186444 0.059535608 0.13335349 -0.17648548 -0.14232792 -0.09760289 -0.055234574
-0.11327162 0.036884665 -0.013926823 0.027210996 -0.088754326 0.15635246 0.15511765 0.104666956
0.16351296 0.12660237 -0.011715077 0.027781203 -0.13941835 0.025375536 0.08250798 0.14129326
0.10732435 -0.030607313 -0.14767785 -0.026310904 -0.17064427 -0.08613962 -0.08562511 -0.09137356
-0.14978953 0.31518996 0.43357012 0.076752275 0.1338198 0.5973125 -0.12192275 0.76757824
0.07271734 -0.29591402 0.041589145 -0.32830262 0.44161767 -0.13654049 0.903268 -0.18515107
0.4063986 -0.14459243 0.83219534 -0.31547263 -0.2906585 0.14102858 0.2766255 0.7784785
0.1195029 -0.8695504 0.17025337 -0.081487775 -0.071364954 -0.86613667 -1.7916533 0.15218085
-0.08648784 0.08000375 -0.1342205 0.10516079 -0.10720088 0.06488643 -0.14345796 0.36551458
-0.12963378 0.0038258433 -0.029641224 0.092692 -0.044619203 0.13034791 0.01333636 0.012648472
0.042187124 -0.10051195 0.10176551 0.036117956 0.27827677 0.025985906 -0.064101204 0.20081002
0.27712774 0.0022921562 -0.114328824 0.3059816 0.103634015 0.011466309 -0.13572398 -0.03758681
-0.07879502 1.021781 -0.8888365 -0.36528563 -0.78163755 -0.97280145 -0.009623711 0.23026624
0.16803136 -0.16206098 -0.3969454 -0.97774184 -0.29230663 0.13939635 -0.973375 0.27261522
-1.2305462 -1.4194916 -0.42015716 -0.113282464 0.13546567 0.13708791 -0.72879946 -0.497667
0.264925 -0.5464142 -0.6071352 -0.6007514 -0.09939283 0.4811871 -0.085068405 -0.10179786
-0.11103233 0.17422245 -0.056407183 0.053259138 0.11195673 0.4660991 0.022454634 0.49926406
0.06368981 0.10110046 0.16962804 0.04850276 0.14600883 0.004478373 0.03221701 0.05157133
0.090855315 0.051463604 -0.11364046 -0.15300855 0.49229556 0.02534402 0.1736096 0.55800235
0.6179577 -0.020633116 -0.06268073 0.44918665 0.14019762 0.092227384 -0.07505622 -0.033859238
00000000: a19b d23d 061c e4bd 874c 0ec0 db94 cd3f
00000010: ba7a 3fc0 4ecb 1fc0 92e0 d03e ff62 bfbf
00000020: f995 86c0 e989 2d3e 673d 83c0 7858 953f
00000030: 6ff3 f5bf b061 dd3e c8e4 babf b8ab 8dbf
00000040: 665f 0fc0 e212 32c0 e810 a2c0 7381 6dbe
00000050: d80a bc3e 7b57 223e 6145 82bf 831c 36c0
00000060: 30be 183f 1746 e5bf d87b 433f 7fc5 033f
00000070: 7a7f 5dbd 5e0b c03e 9e30 efbf 6d6e b5bc
00000080: 402d a7bd 4939 223e 74be 21bd 6008 f0bd
00000090: ad44 173e fb06 39bc 8dfc 95bd c51e 833d
000000a0: d42f 2c3d 8b1d 143e 811b 8a3d b1bd 19be
000000b0: fc3d 863d 3537 56bd d224 fe3d 3e0d 153e
000000c0: 6fed 21be 2845 4c3d b2b7 a33d 2630 e73d
000000d0: 1368 bf3d 78db 163e 5631 943d 5730 973d
000000e0: af00 763d 5f8e 003e 0766 23be 8b51 0fbd
000000f0: 04ca 053d 3a82 903d e304 94bd 3467 eebd
00000100: 1be0 0b3d 9b47 a33e 10cc bd3d 68ae b03f
00000110: fc45 f1bf b961 d63e cf6f e73d d88f b3be
00000120: 9483 b5bf b808 063e 685b a1bf c114 223f
00000130: f617 1bbf 3ed2 a13e 9b04 0d3f 0da5 d9be
00000140: 7661 3f3d 43b8 9e3e f0f5 abbe 3361 12bd
00000150: 544c 77bd 0feb 833d d48d 083e 5c91 9c3d
00000160: 990b bd3e b73e 333e 0dde 793f c599 533e
00000170: 0e53 24be 2675 8a3e 6027 29be 5383 a83e
00000180: dff8 1ebe 74c1 553d 9cdb 733d d18d 083e
00000190: 9cb8 34be 69be 11be 06e4 c7bd a63d 62bd
000001a0: f3fa e7bd 6014 173d 542d 64bc 98e9 de3c
000001b0: d4c4 b5bd dc1a 203e 29d7 1e3e a15b d63d
000001c0: f16f 273e 0da4 013e 98f0 3fbc 6895 e33c
000001d0: afc3 0ebe 5be0 cf3c f2f9 a83d 2eaf 103e
000001e0: decc db3d 30bc fabc dd38 17be f789 d7bc
000001f0: 5fbd 2ebe f869 b0bd 385c afbd 1022 bbbd
00000200: 6d62 19be 9460 a13e e7fc dd3e 4c30 9d3d
00000210: 0f08 093e 79e9 183f a2b2 f9bd 0280 443f
00000220: d4ec 943d 0b82 97be 6159 2a3d 4817 a8be
00000230: b61b e23e 45d1 0bbe 923c 673f 3e98 3dbe
00000240: 7a13 d03e 0a10 14be c10a 553f a185 a1be
00000250: 31d1 94be cc69 103e dca1 8d3e 5e4a 473f
00000260: f0bd f43d db9a 5ebf e656 2e3e 10e3 a6bd
00000270: ca27 92bd 22bb 5dbf e554 e5bf 4cd5 1b3e
00000280: 8920 b1bd 02d9 a33d 1971 09be 8a5e d73d
00000290: 238c dbbd 2de3 843d a5e6 12be ba24 bb3e
000002a0: b8be 04be 00bb 7a3b 27d2 f2bc 4ed5 bd3d
000002b0: a0c2 36bd ec79 053e c080 5a3c 893b 4f3c
000002c0: 68cc 2c3d 36d9 cdbd 706a d03d 6cf0 133d
000002d0: 4b7a 8e3e 65e0 d43c 7e47 83bd 24a1 4d3e
000002e0: b0e3 8d3e 0038 163b 3b25 eabd 9fa9 9c3e
000002f0: 123e d43d 30dd 3b3c 3afb 0abe a0f4 19bd
00000300: 495f a1bd b8c9 823f ca8a 63bf b806 bbbe
00000310: 6619 48bf 8409 79bf c5ac 1dbc eaca 6b3e
00000320: 6a10 2c3e 50f3 25be 6d3c cbbe 4a4d 7abf
00000330: 37a9 95be ebbd 0e3e 1b2f 79bf 3994 8b3e
00000340: 8a82 9dbf e7b1 b5bf d71e d7be a300 e8bd
00000350: 83b7 0a3e c660 0c3e 9a92 3abf 36ce febe
00000360: 40a4 873e cde1 0bbf 366d 1bbf d8ca 19bf
00000370: 788e cbbd 285e f63e 5838 aebd 657b d0bd
00000380: eb64 e3bd 5f67 323e 380b 67bd 4126 5a3d
00000390: 9249 e53d 8ba4 ee3e c8f2 b73c 8a9f ff3e
000003a0: ce6f 823d c20d cf3d f9b2 2d3e d4aa 463d
000003b0: 5783 153e 51bf 923b fcf5 033d 753c 533d
000003c0: 5a12 ba3d 80cb 523d 54bc e8bd 46ae 1cbe
000003d0: 2a0e fc3e 439e cf3c b7c6 313e 3ed9 0e3f
000003e0: 7a32 1e3f c806 a9bc c15e 80bd cbfb e53e
000003f0: f78f 0f3e b6e1 bc3d 13b7 99bd fcaf 0abd

GAT_layers.1.GAT_heads.0.f.bias f4 [64]
-0.14769728 0.122288175 -0.065223314 -0.08486136 0.26785836 -0.054808583 -0.7845525 0.010718642
-0.11518668 0.72492445 -0.22640786 0.36451596 0.018697757 -0.29056606 0.35073537 -0.42237768
-0.02595263 -0.076221175 0.27113295 -0.05502023 0.71274537 0.25872478 0.048988186 -0.0023973128
0.22827408 -0.11375291 -0.045253757 -0.06974239 0.3008963 0.057204943 0.41994578 -0.08853247
-0.30089113 -0.4360902 0.09023735 -0.8869633 -0.36017507 -0.2118566 0.09534319 0.06617347
-0.34044528 -0.06764612 -0.34160525 0.37018454 -0.19728574 -0.08819326 -0.09229433 -0.07133561
-0.085971825 -0.13759832 0.40992162 -0.21193135 -0.35313424 0.5732052 0.14848477 -0.09448847
0.13256484 -0.15635253 0.17026535 0.31695515 0.47173825 -0.094568804 0.23767114 0.7195898
00000000: f53d 17be 3972 fa3d cd93 85bd cbcb adbd
00000010: bb24 893e f77e 60bd 6fd8 48bf 3e9d 2f3c
00000020: fee6 ebbd a694 393f 76d7 67be d6a1 ba3e
00000030: 0a2c 993c 13c5 94be 9693 b33e e341 d8be
00000040: 9c9a d4bc d919 9cbd f0d1 8a3e e55c 61bd
00000050: 7b76 363f 9377 843e d6a7 483d 3c1c 1dbb
00000060: aec0 693e 49f7 e8bd 015c 39bd 19d5 8ebd
00000070: 140f 9a3e bb4f 6a3d 2203 d73e 8350 b5bd
00000080: 670e 9abe 3747 dfbe 5cce b83d 0710 63bf
00000090: de68 b8be f0f0 58be 4a43 c33d f585 873d
000000a0: d84e aebe 0d8a 8abd e2e6 aebe d488 bd3e
000000b0: 4605 4abe ab9e b4bd cf04 bdbd 6718 92bd
000000c0: ff11 b0bd 93e6 0cbe 3fe1 d13e 8804 59be
000000d0: 03ce b4be 93bd 123f 640c 183e 2c83 c1bd
000000e0: 14bf 073e e11a 20be 0a5a 2e3e f247 a23e
000000f0: ad87 f13e 4aad c1bd 1060 733e 0a37 383f

GAT_layers.1.GAT_heads.0.w.weight f4 [1, 128]
-0.20811409 -0.7695503 -0.003493523 -0.06213265 -0.2409625 0.032931462 0.7168655 -0.4665515
-0.2560346 -0.028972395 -0.105244115 -0.030463038 0.08857387 0.11229749 0.014801814 0.09834277
-0.10764141 -0.13438684 -0.0644684 -0.18522009 -0.5025417 -0.13985877 -0.044867687 -0.0835595
0.08500996 0.014029668 -0.08501039 -0.38851184 0.03357618 -0.13365719 -0.76915604 -0.08055937
-0.13912356 0.16182473 0.20285514 -0.22983535 0.18863824 -0.15520625 0.1669639 -0.054578114
0.0030033588 -0.12610626 0.048935153 0.19163457 0.035137415 0.15652974 -0.044704884 -0.03675187
0.089826256 0.17721277 0.06451907 -0.1532551 -0.1370205 -0.14206256 0.047887176 -0.21941204
-0.14761916 -0.101114646 -0.17731483 -0.10664001 -0.17485075 -0.065551296 -0.2693866 0.20360911
-0.046947323 -0.8718455 -0.08858835 0.60003126 0.15692125 0.12626286 0.3801616 0.1303632
0.22446418 -0.2239207 -0.41153437 0.63334656 0.46309888 -0.031283088 -0.24065244 -0.2608763
-0.01613331 -0.29766676 -0.19345178 -0.08359659 0.5359388 0.1406082 0.015653314 0.1869203
0.8270366 -0.2051615 0.080659606 -0.12802869 -0.053184226 -0.42543617 0.09956716 -0.49666896
-0.15375668 -0.0005055964 -0.21154656 0.11981529 0.13083112 -0.35051343 0.04847169 -0.35004234
-0.17509666 0.049287975 -0.2644462 0.071059555 -0.16320595 0.1443989 -0.019715533 -0.14398323
0.12335232 0.20848265 0.12861061 -0.008021951 -0.046554714 0.15803517 0.013154805 -0.08227065
-0.3226373 0.12978229 0.19209865 -0.14502919 -0.08616942 -0.045774877 -0.09689441 -0.04529491
00000000: dc1b 55be 4001 45bf 97f3 64bb ce7e 7ebd
00000010: e0be 76be 24e3 063d 7f84 373f d7df eebe
00000020: f816 83be 8457 edbc 3a8a d7bd 9f8d f9bc
00000030: 3866 b53d 3afc e53d 4f83 723c ef67 c93d
00000040: 1973 dcbd b49c 09be 0208 84bd 56aa 3dbe
00000050: 93a6 00bf 2337 0fbe 2ec7 37bd 3e21 abbd
00000060: b419 ae3d b1dc 653c ed19 aebd 06eb c6be
00000070: 2d87 093d 6edd 08be 69e7 44bf 50fc a4bd
00000080: 6876 0ebe 62b5 253e 42b9 4f3e f559 6bbe
00000090: 622a 413e 63ee 1ebe 96f8 2a3e 4d8d 5fbd
000000a0: 00d4 443b 0022 01be 3a70 483d da3b 443e
000000b0: 40ec 0f3d 5549 203e 781c 37bd 2189 16bd
000000c0: d4f6 b73d 4477 353e 9322 843d e8ee 1cbe
000000d0: 1a4f 0cbe d978 11be 5825 443d 8dad 60be
000000e0: 7a29 17be 3215 cfbd 0592 35be 1466 dabd
000000f0: 130c 33be c23f 86bd 0aed 89be e87e 503e
00000100: d64b 40bd 4431 5fbf cf6d b5bd a69b 193f
00000110: f7af 203e 0d4b 013e 8ba4 c23e ee7d 053e
00000120: f0d9 653e 784b 65be a2b4 d2be 0023 223f
00000130: 4c1b ed3e b222 00bd 986d 76be 9491 85be
00000140: 012a 84bc c767 98be 3918 46be b034 abbd
00000150: 4933 093f 99fb 0f3e 613b 803c 0968 3f3e
00000160: acb8 533f db15 52be dd30 a53d f419 03be
00000170: b4d7 59bd c5d2 d9be dee9 cb3d 654b febe
00000180: 6472 1dbe 008a 04ba a99f 58be b861 f53d
00000190: 98f8 053e 7f76 b3be 408a 463d c038 b3be
000001a0: 8a4c 33be 30e2 493d 7e65 87be ac87 913d
000001b0: 761f 27be 4edd 133e 7882 a1bc 5770 13be
000001c0: 24a0 fc3d 7a7c 553e 80b2 033e 806e 03bc
000001d0: 28b0 3ebd f9d3 213e 4087 573c 847d a8bd
000001e0: b730 a5be a6e5 043e 82b5 443e 8882 14be
000001f0: 9879 b0bd 707e 3bbd 9470 c6bd 2887 39bd

GAT_layers.1.GAT_heads.1.f.weight f4 [64, 128]
-0.10536309 0.06670456 0.034154113 -0.17474289 0.10481524 0.021047765 -0.10895695 -0.04080244
0.086156115 -0.62478906 -0.12163554 -0.16524024 -0.22720534 -0.06378567 0.03129048 -0.091352865
-0.10114114 0.1181707 -0.16381714 -0.13411249 0.0111350035 0.10333003 0.0795192 0.11783296
0.12269705 0.015273836 -0.019123849 -0.04568949 -0.1145592 -0.3444954 0.045606 -0.021278761
0.080433354 0.10578744 -0.10476711 0.041473627 0.14527552 -0.031128794 0.057066277 -0.15263577
0.111592576 -0.06673258 0.07819411 -0.06434043 -0.05957579 -0.087367885 -0.066879295 -0.051040906
0.13286729 0.06306432 0.027646502 -0.120787345 0.02621828 -0.07209531 0.05483465 0.12447654
-0.14193739 -0.02441676 0.118450925 -0.03478057 0.11729838 0.16950502 0.14919525 -0.15348892
-0.17159408 -0.15821904 -0.14403374 0.10568981 -0.09712793 0.045775395 -0.071864545 -0.074024074
-0.062220838 0.016873688 -0.16155854 -0.065708436 -0.01000827 -0.1550319 0.1151622 0.04104514
-0.15849665 -0.044855386 0.05680719 -0.116041206 0.18704498 0.15557984 0.018211259 -0.16050048
0.18985139 0.11190657 0.16385148 0.09640853 0.120334946 -0.16564871 0.099309996 0.15068193
0.12684022 -0.0998172 0.0011724266 0.14493163 0.14611037 0.18219976 0.08710043 0.14676034
-0.086667955 -0.15023178 0.12765548 0.083885774 -0.028286725 0.1694989 0.10049088 0.1381647
0.16589467 -0.076961875 0.1051391 0.07815637 -0.15426843 0.016155636 -0.040034086 -0.13954905
-0.07696506 -0.03610784 0.095051184 -0.098255485 0.022562847 -0.070293695 -0.058868583 -0.1618036
-0.14643884 -0.021088814 -0.15392528 0.10083197 0.026622819 -0.07884469 0.14561097 -0.14599594
0.033228457 -0.29824957 -0.17755069 0.21511388 -0.019325247 -0.007462065 -0.15957119 0.03516537
0.08212819 -0.19521846 -0.0028752112 -0.11813163 -0.054189563 0.08150129 -0.017187165 -0.0023497625
-0.04362998 -0.008693824 0.09414035 0.14778204 0.048566896 -0.07139632 -0.10771452 -0.060988475
-0.15584846 -0.008996293 0.13727345 -0.04975121 0.07676466 0.13366798 -0.009911805 0.10428532
-0.14452158 0.085601404 0.14855342 0.17323287 0.054395035 -0.025541428 -0.031440943 -0.19079152
-0.051807918 -0.15593295 -0.004760984 -0.05361134 -0.02628644 0.05239657 0.01680161 0.14306583
-0.16898955 -0.15356109 0.16750084 0.10370467 0.043260098 -0.16284335 0.077443436 0.079251215
0.0964226 0.30782866 0.04956424 0.23954445 -0.21209893 0.050933495 0.048580013 -0.17227642
0.08732276 -0.20553592 -0.086367875 -0.046060905 0.015919745 0.0697588 0.094033785 0.14308842
-0.11931573 -0.20012571 -0.07636925 -0.15108544 0.007596123 0.03976983 -0.011971624 -0.17242676
0.10193207 -0.16210334 0.25048274 -0.0727347 0.1400961 -0.30605784 -0.06401796 -0.08186813
0.052389055 -0.11285868 -0.042882327 0.01685527 -0.027328983 -0.22289656 -0.12802777 -0.09147015
0.09595485 -0.082569465 0.09067859 -0.09027918 0.13346396 0.08235922 0.017581433 -0.060805056
-0.15316245 0.07398684 -0.09466637 0.1106763 0.13145632 -0.111359134 0.058845222 0.015445641
-0.02467515 -0.0716362 0.17323919 -0.16959482 -0.0029640794 -0.06111449 0.15340616 -0.066439405
00000000: 9bc8 d7bd 669c 883d 2fe5 0b3d cdef 32be
00000010: 5fa9 d63d 5d6c ac3c d224 dfbd 7620 27bd
00000020: 9e72 b03d 2df2 1fbf 0e1c f9bd bd34 29be
00000030: 84a8 68be 10a2 82bd 722a 003d 3617 bbbd
00000040: 1623 cfbd 7b03 f23d aebf 27be c954 09be
00000050: 976f 363c b29e d33d f6da a23d 6852 f13d
00000060: 9748 fb3d 1d3f 7a3c 9ea9 9cbc e724 3bbd
00000070: 049e eabd b361 b0be 5bcd 3a3d cc50 aebc
00000080: 3eba a43d 16a7 d83d 2390 d6bd 40e0 293d
00000090: 1bc3 143e d001 ffbc 54be 693d 8d4c 1cbe
000000a0: a68a e43d 17ab 88bd 3c24 a03d eac4 83bd
000000b0: be05 74bd efed b2bd 03f8 88bd 4510 51bd
000000c0: 5d0e 083e de27 813d eb7a e23c 5b5f f7bd
000000d0: b8c7 d63c b5a6 93bd 4c9a 603d 8eed fe3d
000000e0: 0958 11be a805 c8bc 6696 f23d 1276 0ebd
000000f0: 223a f03d b992 2d3e a4c6 183e 332c 1dbe
00000100: 5cb6 2fbe 2c04 22be 957d 13be e673 d83d
00000110: 02eb c6bd fb7e 3b3d b82d 93bd ef99 97bd
00000120: 47db 7ebd b03a 8a3c 9a6f 25be 2592 86bd
00000130: baf9 23bc afc0 1ebe 29da eb3d f31e 283d
00000140: f24c 22be 48ba 37bd a8ae 683d 03a7 edbd
00000150: b888 3f3e 5250 1f3e c72f 953c 3d5a 24be
00000160: 6768 423e 462f e53d afc8 273e d671 c53d
00000170: 2b72 f63d d19f 29be 0a63 cb3d 5d4c 1a3e
00000180: 67e2 013e f66c ccbd 1cac 993a f568 143e
00000190: f59d 153e 9392 3a3e b661 b23d 5848 163e
000001a0: f87e b1bd 5cd6 19be 1eb8 023e 4ecc ab3d
000001b0: 90b9 e7bc 1f91 2d3e 2ace cd3d 0c7b 0d3e
000001c0: 4be0 293e 309e 9dbd 2b53 d73d 7210 a03d
000001d0: 8bf8 1dbe d358 843c c8fa 23bd f2e5 0ebe
000001e0: db9f 9dbd d0e5 13bd 32aa c23d 2c3a c9bd
000001f0: b8d5 b83c 24f6 8fbd 2f20 71bd d8af 25be
00000200: 10f4 15be 73c2 acbc 979e 1dbe fe80 ce3d
00000210: 1918 da3c 5379 a1bd 0b1b 153e f67f 15be
00000220: 901a 083d 2bb4 98be d9cf 35be d046 5c3e
00000230: fb4f 9ebc 5784 f4bb a166 23be 9009 103d
00000240: d332 a83d 59e7 47be 0a6e 3cbb ffee f1bd
00000250: e0f5 5dbd 26ea a63d 19cc 8cbc 79fe 19bb
00000260: 5ab5 32bd 8a70 0ebc a8cc c03d 2d54 173e
00000270: 15ee 463d 3c38 92bd 6e99 dcbd 0dcf 79bd
00000280: bd96 1fbe 3065 13bc 6991 0c3e edc7 4bbd
00000290: ca36 9d3d 42e0 083e 2065 22bc 8b93 d53d
000002a0: 77fd 13be ca4f af3d 631e 183e f563 313e
000002b0: 54cd 5e3d 423c d1bc 38c8 00bd da5e 43be
000002c0: 8a34 54bd e3ac 1fbe 0702 9cbb 9097 5bbd
000002d0: a956 d7bc c99d 563d 88a3 893c d97f 123e
000002e0: 990b 2dbe 1e3f 1dbe 5785 2b3e 1d63 d43d
000002f0: 8031 313d 68c0 26be aa9a 9e3d 764e a23d
00000300: 3679 c53d b89b 9d3e df03 4b3d 244b 753e
00000310: 7630 59be a49f 503d d6fb 463d 3b69 30be
00000320: 46d6 b23d 0278 52be a4e1 b0bd 5caa 3cbd
00000330: 206a 823c b4dd 8e3d c994 c03d c585 123e
00000340: ce5b f4bd c1ed 4cbe 7b67 9cbd 24b6 1abe
00000350: e6e8 f83b b0e5 223d a124 44bc a490 30be
00000360: c3c1 d03d 6bfe 25be 463f 803e eef5 94bd
00000370: 5a75 0f3e 9db3 9cbe d91b 83bd 7aaa a7bd
00000380: e895 563d 7422 e7bd 61a5 2fbd 1014 8a3c
00000390: 08e1 dfbc ff3e 64be b619 03be b454 bbbd
000003a0: fa83 c43d 2e1a a9bd b2b5 b93d 4ae4 b8bd
000003b0: c7aa 083e f3ab a83d f006 903c b90e 79bd
000003c0: 9ed6 1cbe 6a86 973d 71e0 c1bd 42aa e23d
000003d0: 7c9c 063e 4210 e4bd b007 713d b70f 7d3c
000003e0: 8a23 cabc 00b6 92bd 9d65 313e 44aa 2dbe
000003f0: 0041 42bb 3053 7abd 8116 1d3e 6211 88bd

GAT_layers.1.GAT_heads.1.f.bias f4 [64]
-0.01512055 -0.13234194 0.00461286 -0.037930768 -0.05998653 -0.021799026 -0.10088422 -0.062131085
-0.08942353 0.05434662 -0.050060347 0.022140099 -0.19044271 -0.042100858 -0.12902848 0.003003571
-0.0035088153 -0.05365186 0.053328946 -0.043579668 -0.16693065 -0.020694192 -0.06497258 -0.16624922
0.030033454 -0.09414221 -0.17100444 -0.024954917 -0.056311794 -0.09255753 -0.16913968 0.04782189
-0.014883133 -0.008094768 -0.049259238 -0.08915217 0.00980112 -0.027377345 -0.16180326 -0.107080124
-0.059735205 -0.14986208 -0.024513176 -0.075266816 -0.0031183034 -0.106421486 -0.019431032 0.050948303
-0.27479276 -0.11962961 -0.12970151 0.031216603 -0.039627682 0.004569589 -0.15249106 -0.013848799
-0.028538337 -0.07216594 -0.14574008 -0.035391647 -0.19713196 -0.1360905 -0.0473914 -0.07936801
00000000: 2fbc 77bc a584 07be 7927 973b 4b5d 1bbd
00000010: 70b4 75bd df93 b2bc 639c cebd 2a7d 7ebd
00000020: af23 b7bd 909a 5e3d 140c 4dbd 275f b53c
00000030: 6a03 43be f371 2cbd 0b20 04be 8fd7 443b
00000040: 27f4 65bb 0ec2 5bbd 746f 5a3d 9880 32bd
00000050: deef 2abe de86 a9bc 5810 85bd 3c3d 2abe
00000060: b808 f63c a2cd c0bd ca1b 2fbe 416e ccbc
00000070: 32a7 66bd cd8e bdbd f432 2dbe e3e0 433d
00000080: 62d8 73bc eb9f 04bc 0ec4 49bd 6a95 b6bd
00000090: e094 203c 7446 e0bc c1af 25be d34c dbbd
000000a0: e7ac 74bd 7275 19be dbcf c8bc 7d25 9abd
000000b0: 735c 4cbb 82f3 d9bd d42d 9fbc 2baf 503d
000000c0: a3b1 8cbe 5e00 f5bd 79d0 04be f6b9 ff3c
000000d0: a350 22bd 7ebc 953b 9e26 1cbe 13e6 62bc
000000e0: 3bc9 e9bc bdcb 93bd e33c 15be d5f6 10bd
000000f0: f6dc 49be 4f5b 0bbe 7c1d 42bd b28b a2bd

GAT_layers.1.GAT_heads.1.w.weight f4 [1, 128]
-0.16327307 -0.42435616 0.33365238 -0.058150467 0.2275231 0.080072604 -0.7259467 0.23574495
0.0127681 -0.683999 -0.08419312 -0.70256805 -0.7472498 -0.6005227 0.055957627 -0.21426101
0.049688227 -0.22089952 0.15896462 0.13154063 -0.86410236 -0.058349133 0.2134289 0.23713008
-0.9714921 -0.28893182 0.15823421 0.22202343 0.20478946 -0.5883417 0.46039647 -0.476491
0.017870411 0.17650825 -0.09643624 0.10396773 -0.0962574 0.21603182 -0.16536893 0.23583698
0.06316888 -0.027395353 0.17297404 0.02813831 -0.11311193 -0.039324358 -0.10974652 0.18734278
-0.010336846 0.105761945 -0.039507166 0.15239418 0.28078637 -0.020341914 -0.15539427 0.12220684
0.29005095 0.09143525 0.13013709 0.06309906 -0.108332254 0.16723981 0.18997125 -0.104556456
-0.08519619 0.009246884 -1.0046232 -0.08153886 0.3874828 -0.8854064 0.19976512 0.06960037
0.2204671 0.37398452 0.7478264 0.044763293 0.007472491 0.43513483 -0.5809529 0.10693691
0.08948141 0.54377973 0.2595435 0.33938625 -0.06299377 0.11651773 -0.7586361 -0.65850896
0.17348595 0.10673637 0.2732628 1.4264519 -0.17236191 -0.124520615 -0.32891905 0.53184676
-0.042286903 0.01627399 0.14910622 -0.12410953 -0.1430237 0.43869153 -0.06166832 0.56532794
-0.12011055 -0.06499356 -0.15575707 -0.18605433 0.02685675 -0.20330408 0.08597699 0.05933819
-0.12543425 -0.061538145 0.12239864 -0.06423089 0.55603755 -0.023351217 -0.15685189 0.5772278
0.6339371 0.067605466 0.045932144 0.582705 -0.09711975 -0.1387571 0.013351301 0.13111252
00000000: 0e31 27be 3645 d9be 7cd4 aa3e 2f2f 6ebd
00000010: d1fb 683e 1bfd a33d a5d7 39bf 2067 713e
00000020: 4b31 513c 8f1a 2fbf 716d acbd 80db 33bf
00000030: c34b 3fbf dbbb 19bf d333 653d 3d67 5bbe
00000040: e285 4b3d 7c33 62be 9fc7 223e 96b2 063e
00000050: d035 5dbf 80ff 6ebd 1b8d 5a3e 3ad2 723e
00000060: b5b3 78bf dfee 93be 2608 223e 1c5a 633e
00000070: 54b4 513e 909d 16bf 16b9 eb3e a1f6 f3be
00000080: f864 923c 94be 343e 5d80 c5bd 09ed d43d
00000090: 9a22 c5bd 7237 5d3e 7956 29be 407f 713e
000000a0: b05e 813d 386c e0bc 1b20 313e 5082 e63c
000000b0: 3aa7 e7bd 9412 21bd c9c2 e0bd c9d6 3f3e
000000c0: e05b 29bc b899 d83d 44d2 21bd 380d 1c3e
000000d0: 3bc3 8f3e 16a4 a6bc ad1f 1fbe 9447 fa3d
000000e0: 8f81 943e 6842 bb3d a842 053e 143a 813d
000000f0: 4ddd ddbd ea40 2b3e d387 423e b221 d6bd
00000100: 577b aebd 3e80 173c 7e97 80bf d9fd a6bd
00000110: 2564 c63e fea9 62bf 3a8f 4c3e a48a 8e3d
00000120: 21c2 613e e67a bf3e 8d71 3f3f b759 373d
00000130: ccdb f43b fec9 de3e 54b9 14bf bd01 db3d
00000140: 0842 b73d 2635 0b3f e3e2 843e 09c4 ad3e
00000150: e102 81bd d9a0 ee3d fa35 42bf 0b94 28bf
00000160: 4da6 313e 9998 da3d 1ae9 8b3e fa95 b63f
00000170: a47f 30be aa04 ffbd 1468 a8be 1c27 083f
00000180: 0835 2dbd 0851 853c 4daf 183e 232d febd
00000190: ce74 12be 2d9c e03e ec97 7cbd 55b9 103f
000001a0: 85fc f5bd 581b 85bd c87e 1fbe 0785 3ebe
000001b0: b002 dc3c f22e 50be b414 b03d 9a0c 733d
000001c0: d671 00be 6c0f 7cbd 23ac fa3d 7c8b 83bd
000001d0: 7a58 0e3f 0d4b bfbc c89d 20be 33c5 133f
000001e0: b449 223f bc74 8a3d 5823 3c3d 282c 153f
000001f0: b8e6 c6bd 5716 0ebe 6abf 5a3c 5c42 063e

GAT_layers.2.GAT_heads.0.f.weight f4 [64, 256]
-0.15235488 0.037488297 0.050464153 0.024209118 -0.13775945 -0.0967019 -0.019656887 -0.08631331
0.0073235594 -0.1424506 0.12268558 -0.09393579 -0.16350164 -0.074074924 0.11496537 -0.12985188
-0.10300319 0.12205544 0.014739116 -0.170343 -0.18650474 -0.031122444 -0.00011376176 -0.2013067
-0.09420029 0.08866954 -0.04925412 -0.06510272 -0.012200573 -0.20088963 0.045764826 -0.02506651
0.0044913767 0.011093813 0.04422516 -0.09571392 -0.06720522 -0.017315712 -0.0153164575 -0.014576004
0.030421723 0.037969053 0.004293978 -0.18924044 0.04098685 -0.13063385 -0.114140555 -0.14233209
-0.13925733 -0.010446844 -0.18431857 0.006991796 -0.04089919 -0.22243126 0.022930214 -0.0077845813
-0.0049687237 0.018800735 -0.11889039 -0.13605234 0.0122567415 0.13494322 -0.11156103 -0.096079506
0.036654428 0.035358123 -0.097521655 0.053858813 -0.051156767 0.0328364 0.0665187 -0.045123994
0.120217204 -0.057091072 -0.05858661 -0.04569924 -0.048110697 -0.07552968 0.1253592 -0.10005413
0.058184918 0.05589134 -0.12376907 0.07882736 -0.09061961 0.009895797 -0.035773054 0.05705096
0.0101318145 0.13572335 0.021467395 0.11834336 -0.13171883 -0.15627256 -0.024667418 -0.057204753
-0.06936343 0.13329625 0.073712826 0.010468006 -0.07808119 0.109811455 -0.19832289 0.09936202
-0.068675116 0.10878202 -0.1588591 0.008923939 -0.12064351 0.0426867 0.12519473 -0.12912181
0.05598662 -0.16951935 -0.1367567 -0.027037194 0.026393838 -0.028495613 0.002169334 0.0046751983
0.0013705592 -0.014330136 -0.04283298 0.016061157 -0.076449074 -0.09288278 0.035337646 0.008733359
-0.20686422 -0.024672057 0.027989313 -0.17437406 -0.22157441 -0.11021923 0.01355577 -0.017695356
0.03780829 -0.17571886 -0.022532277 -0.21132867 0.029503612 0.03927741 -0.21713324 -0.11641137
-0.09736303 0.11114925 -0.11208075 -0.22072677 0.0031067063 -0.055398177 -0.17994797 -0.14332606
-0.1135849 0.025242552 0.11686929 -0.00842303 -0.15673044 -0.064072974 -0.13379149 -0.09425103
0.025464293 -0.09225441 -0.04158936 -0.12031639 -0.040064164 -0.11965376 -0.15312721 -0.03910551
-0.09863469 0.07242105 -0.18767291 0.054631323 0.12752849 -0.03658228 0.005560243 -0.0018560392
0.07164913 -0.12525363 -0.03896466 -0.049131192 0.024701266 -0.26400322 -0.115504324 0.016335297
0.012574699 0.044672593 -0.20742868 -0.13681912 -0.023116969 -0.113160275 -0.14585854 -0.0653732
0.029632298 -0.00952274 -0.13717413 0.007415218 0.043152362 0.059431616 0.0067070327 -0.079819866
-0.06671457 -0.079458095 -0.07864559 -0.08097195 -0.13306104 -0.054681566 -0.051210668 -0.04317923
-0.015526493 -0.10003854 -0.07781338 -0.050288595 -0.018306777 -0.044845086 0.061902896 0.04139339
-0.019547906 -0.051886424 -0.084357046 0.09882806 0.08780366 0.021855341 -0.027197111 0.09950237
0.069906354 -0.10386086 -0.1174535 0.066619605 -0.039949868 0.0059314296 -0.00039156977 -0.030578762
0.1186205 -0.09242359 0.048886985 0.017336603 0.055421263 0.066490084 0.07683314 0.08714237
0.027714306 -0.12301753 0.07595787 -0.018043196 -0.069483675 0.109844685 0.0643495 0.08265351
-0.092852734 0.09755408 0.019079823 0.033815306 -0.118341215 0.026422156 0.038494434 -0.2407054
00000000: eb02 1cbe 548d 193d 80b3 4e3d 3352 c63c
00000010: d010 0dbe a50b c6bd 7b07 a1bc 08c5 b0bd
00000020: 78fa ef3b 92de 11be 9442 fb3d 6861 c0bd
00000030: f96c 27be 98b4 97bd f772 eb3d e4f7 04be
00000040: 56f3 d2bd 34f8 f93d 557c 713c 656e 2ebe
00000050: 19fb 3ebe 7ff4 febc 6193 eeb8 5823 4ebe
00000060: 15ec c0bd 6098 b53d b0be 49bd 9354 85bd
00000070: eae4 47bc 03b6 4dbe e673 3b3d 4858 cdbc
00000080: 662c 933b d3c2 353c 7125 353d a905 c4bd
00000090: e4a2 89bd aed9 8dbc e1f1 7abc 31d0 6ebc
000000a0: fa36 f93c 7085 1b3d 80b4 8c3b 3fc8 41be
000000b0: d4e1 273d e1c4 05be 86c2 e9bd 81bf 11be
000000c0: 7999 0ebe 3d29 2bbc 02be 3cbe 701b e53b
000000d0: e985 27bd 05c5 63be 25d8 bb3c cd15 ffbb
000000e0: add0 a2bb 0004 9a3c ce7c f3bd 4e51 0bbe
000000f0: 80d0 483c 8e2e 0a3e 1c7a e4bd 55c5 c4bd
00000100: f422 163d aed3 103d 6fb9 c7bd 0f9b 5c3d
00000110: c289 51bd 767f 063d f53a 883d f0d3 38bd
00000120: 7034 f63d 54d8 69bd 83f8 6fbd 202f 3bbd
00000130: b90f 45bd 4eaf 9abd 2a5e 003e 2ee9 ccbd
00000140: 4f53 6e3d 51ee 643d a37a fdbd 3d70 a13d
00000150: c696 b9bd fb21 223c c486 12bd 44ae 693d
00000160: e9ff 253c 10fb 0a3e 64dc af3c 015e f23d
00000170: 4de1 06be ea05 20be 5313 cabc 884f 6abd
00000180: 6a0e 8ebd d07e 083e c0f6 963d 0082 2b3c
00000190: 08e9 9fbd d4e4 e03d 2815 4bbe 517e cb3d
000001a0: 8aa5 8cbd 1cc9 de3d f6ab 22be b735 123c
000001b0: f213 f7bd 40d8 2e3d 0c33 003e 8238 04be
000001c0: 3a52 653d 7b96 2dbe f309 0cbe 1b7d ddbc
000001d0: e437 d83c a26f e9bc 632b 0e3b 6832 993b
000001e0: 56a4 b33a f2c8 6abc a371 2fbd b092 833c
000001f0: 5591 9cbd 5439 bebd 35be 103d 5d16 0f3c
00000200: 37d4 53be 0e1d cabc d849 e53c 1d8f 32be
00000210: 67e4 62be 9fba e1bd 0519 5e3c daf5 90bc
00000220: dedc 1a3d a5ef 33be 9c95 b8bc 8b66 58be
00000230: 8fb1 f13c 59e1 203d 2d58 5ebe 1669 eebd
00000240: 4566 c7bd 38a2 e33d 988a e5bd 3306 62be
00000250: e299 4b3b 33e9 62bd 4844 38be 11c4 12be
00000260: 339f e8bd 78c9 ce3c 2b59 ef3d c000 0abc
00000270: f27d 20be b138 83bd a300 09be af06 c1bd
00000280: 7e9a d03c e1ef bcbd 9b59 2abd 7168 f6bd
00000290: 521a 24bd 080d f5bd 61cd 1cbe 192d 20bd
000002a0: fc00 cabd 7d51 943d 542d 40be 18c5 5f3d
000002b0: d496 023e 4dd7 15bd b332 b63b 5746 f3ba
000002c0: c7bc 923d 7d42 00be 6899 1fbd ca3d 49bd
000002d0: 4f5a ca3c 6e2b 87be 888d ecbd 9ad1 853c
000002e0: 1c06 4e3c 9cfa 363d 2f68 54be 501a 0cbe
000002f0: cc5f bdbc 93c0 e7bd f15b 15be 62e2 85bd
00000300: 6fbf f23c 4405 1cbc 6077 0cbe 5bfb f23b
00000310: 88c0 303d 916e 733d abc6 db3b 9978 a3bd
00000320: a6a1 88bd edba a2bd f010 a1bd 9fd4 a5bd
00000330: 2741 08be c7f9 5fbd 47c2 51bd b4dc 30bd
00000340: d562 7ebc 02e1 ccbd 9f5c 9fbd 6afb 4dbd
00000350: 18f8 95bc 7baf 37bd e48d 7d3d 1e8c 293d
00000360: ee22 a0bc dc86 54bd 63c3 acbd 5e66 ca3d
00000370: 68d2 b33d f909 b33c 7acc debc e6c7 cb3d
00000380: 102b 8f3d 01b5 d4bd 768b f0bd dc6f 883d
00000390: 79a2 23bd 705c c23b 9b4b cdb9 5080 fabc
000003a0: 4eef f23d 9448 bdbd b83d 483d 7e05 8e3c
000003b0: 6801 633d f42b 883d b15a 9d3d b377 b23d
000003c0: 1d09 e33c 9df0 fbbd cd8f 9b3d 53cf 93bc
000003d0: 754d 8ebd 40f6 e03d acc9 833d 3e46 a93d
000003e0: 9329 bebd 6fca c73d 4a4d 9c3c eb81 0a3d
000003f0: e15c f2bd 4773 d83c 57ac 1d3d 7a7b 76be

GAT_layers.2.GAT_heads.0.f.bias f4 [64]
-0.2529075 -0.21169895 -0.072731204 -0.101705134 -0.17436324 -0.31018376 -0.025509762 -0.09817956
-0.2909008 -0.074959934 -0.2683986 -0.38797754 -0.01616493 -0.047254577 -0.08165334 -0.07725799
-0.17640263 -0.1968957 -0.040134415 -0.099429496 -0.3454409 -0.18466578 -0.08019972 -0.036946017
-0.1862964 -0.12470542 -0.12284933 -0.26019657 -0.14670861 -0.18980528 -0.1429842 -0.20065676
-0.032042082 -0.14622346 -0.060128726 -0.034969147 -0.2958692 -0.052366957 -0.030835813 -0.07603979
-0.07666202 -0.097380266 -0.06491585 -0.1690533 -0.17562267 -0.15970089 -0.10891904 -0.14826027
-0.20644209 -0.14174059 -0.18945988 -0.2414978 -0.12359485 -0.12372163 -0.1678689 -0.17195979
-0.11504022 -0.16292278 -0.21576692 -0.1452406 -0.15616278 -0.24285808 -0.21879074 -0.26875812
00000000: 187d 81be 9cc7 58be 19f4 94bd c84a d0bd
00000010: 478c 32be 68d0 9ebe d9f9 d0bc 5d12 c9bd
00000020: f3f0 94be 9884 99bd 8b6b 89be fea4 c6be
00000030: 516c 84bc 048e 41bd de39 a7bd 7039 9ebd
00000040: e4a2 34be 079f 49be fc63 24bd b1a1 cbbd
00000050: a1dd b0be 0719 3dbe c03f a4bd b554 17bd
00000060: 7cc4 3ebe 8e65 ffbd 6e98 fbbd 7c38 85be
00000070: c83a 16be 515c 42be 736a 12be f778 4dbe
00000080: 8f3e 03bd 9abb 15be 8a49 76bd cf3b 0fbd
00000090: 2b7c 97be bc7e 56bd 639b fcbc c0ba 9bbd
000000a0: fa00 9dbd 4e6f c7bd 9af2 84bd 4f1c 2dbe
000000b0: 6ed6 33be a188 23be f210 dfbd 8ad1 17be
000000c0: 8e65 53be 7224 11be c501 42be 334b 77be
000000d0: 4c1f fdbd c461 fdbd d3e5 2bbe 3a16 30be
000000e0: 359a ebbd 3bd5 26be 01f2 5cbe f4b9 14be
000000f0: 23e9 1fbe caaf 78be ae0a 60be aa9a 89be

GAT_layers.2.GAT_heads.0.w.weight f4 [1, 256]
-0.32928938 -0.7450976 0.019276248 -0.96170217 -0.5814256 -0.18282342 -0.0804348 0.17624503
-0.9548702 -0.2692492 -0.096588485 -0.3256956 -0.11055603 -0.10171605 -0.38589257 -0.038115863
-0.77364224 -0.049074374 -0.043239783 -0.08672893 -0.63422376 -0.055387665 -0.16815366 -0.45659983
-0.15289897 -0.018483594 -0.1664426 -0.118023746 -0.12533593 -0.0130728055 -0.6542474 -0.28810775
-0.25490862 -0.4526288 -0.7747256 -0.18791191 -0.51373845 0.13382931 0.25853622 -0.016292766
-0.11911138 -0.046821583 -0.18254037 -0.42208865 0.12697472 0.24843842 -0.20569575 -0.1463725
0.073742464 -0.12466907 -0.6788252 0.07557594 0.091983736 -0.23409578 -0.20931724 -0.38087928
0.1470538 -0.11598204 0.39686173 -0.09055703 -0.25222307 -0.08582742 -0.17287247 -0.14121406
-0.0019150102 0.14403628 0.07448154 -0.10173779 0.1452776 0.050208017 -0.045286544 0.05460246
0.18316144 -0.030998887 -0.041347235 0.2064018 -0.089984044 0.6539337 -0.084508605 -0.027578684
-0.053934757 0.26984525 0.09474787 0.019824494 -0.1190187 0.016867954 -0.030890657 0.13004431
0.10654192 -0.07552754 0.28967333 -0.1639455 0.1297442 -0.11097832 0.2416925 -0.06674243
0.14462012 0.0011554805 0.10328026 0.12022315 0.09660538 -0.10900173 0.027831107 -0.12079928
0.01767817 -0.27278468 -0.18429954 0.12913856 -0.1519261 0.03092404 -0.006033127 -0.08112646
0.09654841 0.20301725 -0.02073477 -0.13402645 -0.0139464 -0.12283119 0.3717566 0.119305156
0.26558444 0.11240088 0.20917614 -0.1753594 0.08530032 -0.13032892 -0.027362673 0.25861138
-0.7228176 -0.7046254 -0.15425935 -0.5503697 -0.7230537 -0.7421998 -0.43671656 -0.60266113
-0.90804994 -0.81559825 0.11487494 -0.602635 -0.5680952 -0.46735418 -0.40759686 -0.66165483
-0.52275115 0.13695535 -0.6663556 -0.37287366 -0.5872391 -0.649186 -0.5940159 -0.5906445
-0.6303482 0.07350884 -0.11951466 -0.13091323 -0.7490236 -0.47643903 -0.7883366 -0.112767294
-0.6524589 -0.49555182 -0.7397597 -0.71659184 -0.70991254 -0.20591687 -0.67521834 -0.181042
-0.6922103 0.01860563 -0.59091485 -0.64680964 0.023049489 -0.40596744 -0.32400224 -0.14172757
-0.09281506 -0.035822928 -0.8563218 -0.75836796 -0.6372582 -0.7176942 -0.63695025 -0.9161115
-0.58212095 -0.03850739 -0.47370958 -0.6276232 -0.33736047 -0.1016167 -0.3834364 -0.61429626
0.16180451 0.02885843 0.07307979 -0.17956075 -0.055281818 -0.03998732 -0.093102284 -0.031152071
0.011471203 -0.057306007 -0.13141191 0.15346974 -0.04206273 0.87833655 -0.08766601 0.0105962735
-0.053695433 0.34950113 0.026482193 -0.11234837 -0.09991239 -0.124921374 0.02747058 -0.09741508
-0.09224815 -0.0040613264 0.23145993 -0.12569551 -0.14357856 0.016061071 0.10436848 -0.09775592
0.0349792 0.062983036 -0.05137792 -0.0077186883 -0.065960504 -0.13797016 0.18844 -0.014548641
-0.11787302 -0.30193886 0.054696504 0.06592119 -0.017452866 -0.04668773 -0.101150006 -0.07746722
0.3117014 0.09915963 -0.11606309 -0.074722566 -0.01440557 0.026104745 0.36083508 -0.14246993
-0.025038859 0.19959906 0.025671495 -0.015887527 0.099076994 0.010247001 -0.09541147 0.35258856
00000000: 9e98 a8be b7be 3ebf 39e9 9d3c 1d32 76bf
00000010: 4fd8 14bf 1036 3bbe 00bb a4bd 9479 343e
00000020: 6072 74bf 08db 89be 2fd0 c5bd 93c1 a6be
00000030: 336b e2bd 8150 d0bd b693 c5be 611f 1cbd
00000040: 6b0d 46bf 3602 49bd 331c 31bd f09e b1bd
00000050: 7d5c 22bf 2dde 62bd 7930 2cbe 74c7 e9be
00000060: 8c91 1cbe e86a 97bc ee6f 2abe 6fb6 f1bd
00000070: 1058 00be 522f 56bc c27c 27bf dc82 93be
00000080: 6283 82be f6be e7be 6b54 46bf fb6b 40be
00000090: 5d84 03bf 8d0a 093e dc5e 843e 6878 85bc
000000a0: abf0 f3bd fdc7 3fbd ddeb 3abe 011c d8be
000000b0: a905 023e a466 7e3e e8a1 52be ace2 15be
000000c0: 4a06 973d 7f52 ffbd 7dc7 2dbf 8fc7 9a3d
000000d0: f861 bc3d ceb6 6fbe 4257 56be 9c02 c3be
000000e0: 4595 163e fe87 edbd 7631 cb3e f775 b9bd
000000f0: 6223 81be 49c6 afbd 7b05 31be 6b9a 10be
00000100: 1401 fbba 3f7e 133e c789 983d e75b d0bd
00000110: a7c3 143e eca6 4d3d 627e 39bd d4a6 5f3d
00000120: ac8e 3b3e 61f1 fdbc b85b 29bd fe5a 533e
00000130: 8e49 b8bd 3368 273f d912 adbd b1ec e1bc
00000140: b1ea 5cbd 2829 8a3e 2c0b c23d fa66 a23c
00000150: 14c0 f3bd aa2e 8a3c 670e fdbc 562a 053e
00000160: a632 da3d 2fae 9abd 1050 943e 54e1 27be
00000170: aadb 043e 9a48 e3bd 3d7e 773e 41b0 88bd
00000180: 4c17 143e 7e73 973a 9a84 d33d 8e37 f63d
00000190: 0bd9 c53d 4d3c dfbd 10fe e33c 9d65 f7bd
000001a0: cfd1 903c 6faa 8bbe 05b9 3cbe e63c 043e
000001b0: 8492 1bbe 6a54 fd3c 8ab1 c5bb a125 a6bd
000001c0: 2cbb c53d c1e3 4f3e f7db a9bc 3b3e 09be
000001d0: 717f 64bc eb8e fbbd e256 be3e 4356 f43d
000001e0: affa 873e 6f32 e63d 4532 563e 6a91 33be
000001f0: efb1 ae3d f274 05be af27 e0bc b668 843e
00000200: 930a 39bf 5562 34bf 2af6 1dbe 07e5 0cbf
00000210: 0c1a 39bf ce00 3ebf 5099 dfbe 0048 1abf
00000220: f675 68bf 0ccb 50bf 8d43 eb3d 4a46 1abf
00000230: b06e 11bf 0c49 efbe 89b0 d0be 3662 29bf
00000240: 05d3 05bf 063e 0c3e 4896 2abf 4ce9 bebe
00000250: 4d55 16bf 0e31 26bf 6d11 18bf 7a34 17bf
00000260: 805e 21bf cd8b 963d 1ac4 f4bd 1e0e 06be
00000270: 03c0 3fbf d1ef f3be 6dd0 49bf 8af2 e6bd
00000280: 8c07 27bf f8b8 fdbe e460 3dbf 9072 37bf
00000290: d4bc 35bf dfdb 52be 1cdb 2cbf 1363 39be
000002a0: b234 31bf d66a 983c 3246 17bf 5195 25bf
000002b0: 48d2 bc3c f7da cfbe 9fe3 a5be 0821 11be
000002c0: d215 bebd 10bb 12bd e837 5bbf 6724 42bf
000002d0: 5a23 23bf cfba 37bf 2c0f 23bf 4986 6abf
000002e0: e105 15bf edb9 1dbd 108a f2be eaab 20bf
000002f0: 83ba acbe 6b1c d0bd c751 c4be 8542 1dbf
00000300: 15b0 253e 8468 ec3c dbaa 953d c6de 37be
00000310: 306f 62bd bec9 23bd 69ac bebd a132 ffbc
00000320: b6f1 3b3c b4b9 6abd d890 06be 2c27 1d3e
00000330: f849 2cbd aada 603f 3d8a b3bd fe9b 2d3c
00000340: beef 5bbd d0f1 b23e 2ff1 d83c e716 e6bd
00000350: de9e ccbd c7d6 ffbd fb09 e13c 8f81 c7bd
00000360: 99ec bcbd e014 85bb d503 6d3e 53b6 00be
00000370: 4206 13be 8292 833c 24bf d53d 4134 c8bd
00000380: 5a46 0f3d 40fd 803d a771 52bd 0ded fcbb
00000390: 4d16 87bd 0d48 0dbe 6af6 403e 6c5d 6ebc
000003a0: 6967 f1bd bb97 9abe 7109 603d b001 873d
000003b0: 50f9 8ebc a23b 3fbd bc27 cfbd 22a7 9ebd
000003c0: 5397 9f3e 3414 cb3d 7cb2 edbd 2508 99bd
000003d0: 5705 6cbc 9ed9 d53c 60bf b83e a3e3 11be
000003e0: 4b1e cdbc b263 4c3e 074d d23c 8f26 82bc
000003f0: e1e8 ca3d 0ae3 273c 1767 c3bd 7d86 b43e
